models/model.pth (torch, 378929 bytes, 8 tensors)

conv1.weight f4 [32, 1, 3, 3]
0	0xbec9fe7b	-0.39451966
1	0xbeee88bf	-0.46588704
2	0x3e5a0f0b	0.21294801
3	0x3d8a9b66	0.06767921
4	0xbe9347c6	-0.28765696
5	0xbf1219d0	-0.57070637
6	0x3ea9a8d8	0.3313663
7	0x3ed5fb7f	0.4179344
8	0xbe107876	-0.14108452
9	0x3cd10c0e	0.025518443
10	0xbe59aa6c	-0.21256417
11	0x3cf24bd1	0.029577168
12	0x3e4994d2	0.19685677
13	0x3cda8829	0.026676254
14	0xbc3ac207	-0.011398799
15	0xbe9c2a7d	-0.30501166
16	0xbe6b5041	-0.22979833
17	0x3e6dbf26	0.23217449
18	0xbe0d9b2c	-0.13828725
19	0x3e091d16	0.13390002
20	0x3e6befd7	0.2304071
21	0xbc97b28e	-0.018517759
22	0x3e5f36b5	0.21798213
23	0xbe7951e8	-0.24347651
24	0x3e1da29a	0.15394059
25	0x3e54d487	0.20784198
26	0xbee51e87	-0.44749853
27	0xbdf1fe2c	-0.118160576
28	0xbeace5b9	-0.33769014
29	0xbed72467	-0.4201996
30	0x3e5e13a4	0.2168718
31	0x3de0d9e0	0.10979056
32	0x3da63e4d	0.08117352
33	0x3db0b6e2	0.08628632
34	0x3ee49a43	0.44648942
35	0x3cd63f50	0.026153237
36	0x3ce49c86	0.027906667
37	0x3ce27027	0.027641369
38	0x3c4bdcd9	0.012442791
39	0xbde5e0ef	-0.11224543
40	0xbd218cef	-0.039441045
41	0xbe2d2353	-0.16908006
42	0xbde9edb5	-0.11422292
43	0x3e3146a1	0.17312099
44	0xbcfa2a3b	-0.030537715
45	0x3c92a186	0.017899286
46	0x3e9b0b15	0.30281892
47	0x3d69b685	0.05705883
48	0xbe9eaf8c	-0.30993307
49	0x3e3e39b2	0.18576697
50	0x3d1d6e6f	0.038435396
51	0xbd98f076	-0.07467739
52	0xbe8c202a	-0.2736829
53	0xbe81d842	-0.25360304
54	0x3dde393e	0.10850762
55	0xbdefd92f	-0.11711346
56	0xbec92521	-0.3928614
57	0x3dc0bfb8	0.094115674
58	0x3d48aef1	0.048994962
59	0x3d8704cb	0.06592711
60	0x3e9fa5b8	0.3118112
61	0x3cd2d187	0.025734676
62	0xbebc333f	-0.36757848
63	0xbdf7051a	-0.1206152
64	0x3af70c43	0.0018848259
65	0x3d929028	0.07156402
66	0xbede2728	-0.4338925
67	0xbe59c6de	-0.21267268
68	0x3f0823b7	0.53179497
69	0xbec04910	-0.37555742
70	0xbc2c95d4	-0.010533769
71	0x3eebb214	0.460343
72	0xbeaeaeca	-0.34117728
73	0xbe55ea2e	-0.20890114
74	0xbcc41248	-0.023934498
75	0x3e918c55	0.28427377
76	0x3ebca280	0.36842728
77	0xbe39f3e1	-0.18159439
78	0x3dd3fdde	0.10351156
79	0xbebdf4c3	-0.371008
80	0x3e3c3513	0.18379621
81	0xbe8daca0	-0.27670765
82	0xbefe8342	-0.49709517
83	0x3ddec3c0	0.1087718
84	0x3c804b3b	0.015660873
85	0xbec66686	-0.38750094
86	0x3ee1129b	0.43959507
87	0xbe1dd8ec	-0.1541478
88	0xbf083b78	-0.5321574
89	0x3de38921	0.1111014
90	0xbccdb51e	-0.025110777
91	0xbe73841f	-0.23780869
92	0x3eac52b9	0.33656862
93	0x3df0bbc1	0.11754561
94	0x3e8233eb	0.25430235
95	0x3ea9e628	0.33183408
96	0xbdbe4a1f	-0.09291481
97	0xbe0f68fd	-0.14004894
98	0xbf2dee06	-0.6794132
99	0xbd750837	-0.059822287
100	0xbef6e8be	-0.48224443
101	0xbe885c99	-0.26633146
102	0xbe945d83	-0.28977594
103	0x3e7e9b74	0.24863988
104	0x3f08ab3c	0.5338628
105	0x3e7d0551	0.2470906
106	0x3e4ac36f	0.19801114
107	0xbcc8e0fd	-0.024521345
108	0xbe5e5201	-0.2171097
109	0x3ccb0d59	0.024786638
110	0x3ec62b9d	0.3870515
111	0x3db6bb66	0.08922462
112	0xbec044e5	-0.37552562
113	0xbb27492c	-0.0025525792
114	0xbddcdbe6	-0.1078413
115	0xbcea2984	-0.02858425
116	0xbe6894ff	-0.22713087
117	0x3cba4e5a	0.022742439
118	0x3cd9529d	0.02652865
119	0xbf17ac52	-0.59247315
120	0xbef5289e	-0.4788255
121	0x3e7aef58	0.24505365
122	0xbdaf16f7	-0.08549302
123	0x3e9cd8f0	0.3063426
124	0x3b40887b	0.0029378224
125	0x3ea05c7c	0.3132056
126	0xbdc5addd	-0.096523024
127	0x3eb7f235	0.35926977
128	0xbec5715b	-0.38563046
129	0x3e7aca5a	0.24491253
130	0xbe26268a	-0.16225639
131	0xbdc534ee	-0.09629236
132	0x3e6f936e	0.23396084
133	0xbd2602f6	-0.040530168
134	0xbe411dbf	-0.18859003
135	0x3ecd0147	0.40040037
136	0x3eff24ee	0.49832863
137	0x3ec238d6	0.37933987
138	0xbe32a403	-0.17445378
139	0xbe4ed1f0	-0.20197272
140	0xbe851e95	-0.25999895
141	0xbf105277	-0.5637583
142	0xbeae6787	-0.3406336
143	0xbe53bc7a	-0.20677367
144	0xbe9a8afe	-0.30184168
145	0x3e9fdb7b	0.31222138
146	0x3e0f518e	0.13995954
147	0xbed7423c	-0.4204272
148	0xbe900ab1	-0.28133157
149	0xbdec9784	-0.11552337
150	0x3c351e08	0.011054523
151	0xbe93c8f3	-0.2886425
152	0xbe86b484	-0.26309597
153	0x3e478b0d	0.19486637
154	0xbe5c4ceb	-0.21513717
155	0xbdd7d996	-0.10539548
156	0x3e80d6cb	0.25163874
157	0xbc8370ba	-0.016044963
158	0xbf03abfd	-0.5143431
159	0xbc9d3189	-0.01918866
160	0x3ef08ab1	0.46980813
161	0x3dc77d55	0.09740702
162	0x3e155fea	0.1458737
163	0xbeaf5c8d	-0.34250298
164	0x3e4c0694	0.19924384
165	0x3e2c9616	0.16854128
166	0xbeba5a59	-0.36397055
167	0xbe9c453c	-0.30521572
168	0x3f09235a	0.5356957
169	0x3db000b3	0.08593883
170	0xbf09c98a	-0.5382315
171	0x3e01e6f7	0.12685762
172	0x3ee34376	0.44387406
173	0xbe696381	-0.22791864
174	0x3ed2fe5a	0.4120968
175	0x3da2d828	0.07951385
176	0xbed670e5	-0.41883007
177	0x3e5dca53	0.21659212
178	0xbf035885	-0.51306945
179	0xbe508062	-0.20361474
180	0x3e2b96e7	0.16756783
181	0x3ecd65fc	0.4011687
182	0xbec35a33	-0.38154754
183	0x3ed9a3f9	0.42507914
184	0xbeb3b54c	-0.35099256
185	0xbf15be2d	-0.5849331
186	0xbeeb638a	-0.4597438
187	0xbf343c21	-0.7040425
188	0x3e4b1cf3	0.19835262
189	0x3f006ee8	0.5016923
190	0x3d219e5d	0.039457668
191	0xbf05c3e7	-0.5225205
192	0xbe67b31a	-0.22626916
193	0xbf65bcba	-0.897411
194	0xbec72fe2	-0.3890372
195	0xbf1ddf70	-0.61669064
196	0xbec23fe1	-0.3793936
197	0x3eff1c08	0.49826074
198	0xbe34a7b5	-0.176421
199	0xbed83f52	-0.4223581
200	0xbea6d98b	-0.32587847
201	0x3df84d3f	0.121241085
202	0x3e8cc10a	0.27491027
203	0xbecbe81d	-0.39825526
204	0x3d63b78d	0.05559497
205	0x3ece86cd	0.4033722
206	0xbeba4c51	-0.3638635
207	0x3d96297c	0.07332131
208	0x3dd33292	0.1031238
209	0x3e0f3636	0.13985524
210	0xbc64c96f	-0.013964041
211	0xbe498fae	-0.19683716
212	0x3dbaa942	0.091143146
213	0x3dfade50	0.12249434
214	0xbb0e8aad	-0.0021750138
215	0x3d0e42e1	0.03473175
216	0xbe187260	-0.1488738
217	0x3e73dc23	0.23814444
218	0xbee4fdb5	-0.44724813
219	0x3e5fbd15	0.21849473
220	0x3e4c1083	0.19928174
221	0xbebca849	-0.3684714
222	0xbeb62051	-0.3557153
223	0x3e8ccd3a	0.27500325
224	0x3e5eca87	0.21756946
225	0x3d96e389	0.07367618
226	0xbb8274fe	-0.0039812317
227	0x3d22c9a6	0.03974309
228	0xbd45a30b	-0.048251193
229	0xbe688c65	-0.22709806
230	0x3e3f2ce8	0.18669474
231	0xbd5e00b9	-0.054199908
232	0x3c2b3b01	0.010451079
233	0xbdaf93cb	-0.08573111
234	0xbd971a8f	-0.073781125
235	0x3e4d43cd	0.20045395
236	0xbe9f6ef1	-0.3113933
237	0xbe3335f7	-0.17501055
238	0x3e80d923	0.25165662
239	0x3e7e92b3	0.24860649
240	0xbe0eea56	-0.1395658
241	0xbee0ab9b	-0.43880925
242	0x3dbc8d51	0.092066415
243	0x3d3d5c1f	0.04623043
244	0xbc06f463	-0.008236977
245	0x3dec3e84	0.115353614
246	0xbc1356de	-0.008992879
247	0x3dab31f1	0.08359135
248	0x3e56c740	0.20974445
249	0xbdab2c33	-0.0835804
250	0x3e01a9c4	0.12662417
251	0x3deb04fd	0.11475561
252	0xbea13781	-0.3148766
253	0xbe2f6290	-0.17127442
254	0xbec9ca83	-0.39412317
255	0xbebbd777	-0.36687824

conv1.bias f4 [32]
0	0xbda71cee	-0.08159815
1	0xbdc6cfee	-0.09707628
2	0xbed4e267	-0.4157898
3	0xbda3a675	-0.079907335
4	0xbd2e885f	-0.042610522
5	0xbdcae955	-0.09907786
6	0xbdb9d99d	-0.090747096
7	0xbd5c4162	-0.05377329
8	0xbe8550d7	-0.26038238
9	0xbe2096d0	-0.1568253
10	0xbd818b14	-0.06325355
11	0xbeb58bc4	-0.35458195
12	0xbd5f707c	-0.054550633
13	0xbde7c819	-0.113174625
14	0xbdf603d9	-0.12012453
15	0xbdc6efa6	-0.09713678
16	0x3ea4d39b	0.32192692
17	0x3c7fa076	0.015602222
18	0xbe3246c5	-0.17409809
19	0xbdd0cb36	-0.101950094
20	0xbe06b234	-0.13153917
21	0xbe3acbfe	-0.1824188
22	0xbe44a7b5	-0.192046
23	0xbe957411	-0.29190114
24	0xbe2f0b0f	-0.17094062
25	0xbd5e4209	-0.054262195
26	0xbe22532f	-0.15852045
27	0xbe548625	-0.20754297
28	0xbeb1e879	-0.34747675
29	0x3cba13be	0.022714492
30	0x3ea00a46	0.31257838
31	0xbc339160	-0.010959953

conv2.weight f4 [64, 32, 3, 3]
0	0xbd416411	-0.04721457
1	0xbd575ca4	-0.052578583
2	0x3c7ee7ba	0.015558178
3	0xbc00b4a0	-0.007855564
4	0xbd1a85d1	-0.037725274
5	0x3c49dcf8	0.012320749
6	0x3be6e694	0.00704653
7	0xbd63e1e4	-0.055635348
8	0xbd19cadc	-0.037546977
9	0xbba34506	-0.0049825935
10	0x3c5273cf	0.012844994
11	0xbd066db8	-0.03281948
12	0x3d2b211a	0.041779615
13	0xbc533c3d	-0.01289278
14	0xbc44b7cf	-0.012006714
15	0xbd48acff	-0.048993107
16	0xbd818164	-0.063235074
17	0xbd86616a	-0.06561549
18	0xbd072676	-0.032995664
19	0x3c7b7263	0.015347096
20	0x3b936644	0.004498275
21	0x3be8a823	0.0071001216
22	0x3cc67ea6	0.024230313
23	0xbd09afde	-0.033614986
24	0xbd956677	-0.07294934
25	0xbb422af5	-0.0029627655
26	0xbd720c74	-0.059093907
27	0x3c2d2a7f	0.010569214
28	0xbce0f96f	-0.02746269
29	0xbbf0342e	-0.007330439
30	0x3c585f65	0.013206338
31	0xbda93634	-0.082622916
32	0xbc7c9479	-0.015416258
33	0xbc33c338	-0.010971837
34	0x3c5535b3	0.013013291
35	0x3bde07ed	0.006775847
36	0xbd76877e	-0.06018781
37	0x3d34fcd4	0.04418643
38	0xbd78863a	-0.060674883
39	0xbd63f836	-0.055656634
40	0x3ccb1cb5	0.024793962
41	0x3c776c9e	0.01510158
42	0xbcb796ac	-0.022410713
43	0x3cf3aca4	0.029745407
44	0xbc74c620	-0.014939815
45	0xbd1abe96	-0.037779413
46	0x3c05e5bb	0.008172448
47	0xbc6cf25a	-0.014462078
48	0x3ca97769	0.020686822
49	0xbcf89a19	-0.030346917
50	0xbd6e6a53	-0.058206867
51	0x3d4d27e7	0.050086882
52	0x3d0ac934	0.03388329
53	0x3c3d1d28	0.011542596
54	0xbb2cadac	-0.0026348634
55	0xbca1c913	-0.0197492
56	0xbc28beb1	-0.010299371
57	0xbd747af4	-0.05968757
58	0xbcb95269	-0.022622304
59	0xbc6b70b6	-0.014370134
60	0x3cae8dd5	0.021307865
61	0xbd80bd1d	-0.062860705
62	0xbd2e1786	-0.042502902
63	0xbc1c4f81	-0.00954044
64	0xbcfaea51	-0.030629309
65	0xbd95a0b6	-0.07306044
66	0x3c5f38ef	0.013624414
67	0x3cc72789	0.024310844
68	0xbcb8e7ec	-0.022571526
69	0xbbe4f086	-0.0069866804
70	0x3d00feeb	0.03149311
71	0x3bba4ef8	0.0056856833
72	0xbd290efc	-0.041274056
73	0xbca9f3ae	-0.020746078
74	0x3d292fec	0.041305467
75	0xbbb68df6	-0.0055711223
76	0x3bf367bd	0.007428138
77	0xbd42cc4b	-0.04755811
78	0xbb734381	-0.0037119093
79	0xbd59c484	-0.053165928
80	0xbc472b5f	-0.012156337
81	0x3c8fdaed	0.017560447
82	0x3d03a283	0.032137405
83	0x3d4504e3	0.048100363
84	0xbc800851	-0.015628966
85	0x3c8ed272	0.017434333
86	0x3c8d3e96	0.017241757
87	0x3c8a958a	0.016917009
88	0xbd41a910	-0.04728037
89	0xbd66136f	-0.056170877
90	0x3ca7005f	0.02038592
91	0x3b5427c5	0.0032372337
92	0xbcf9d342	-0.030496243
93	0x3c350ec1	0.011050881
94	0x3d54046a	0.051762022
95	0x3d1f81d8	0.038942188
96	0xbd6c766e	-0.05773013
97	0xbc739df6	-0.014869204
98	0xbcb056e7	-0.021525813
99	0xbd7b347e	-0.061329357
100	0x3d105a74	0.035242513
101	0xbd466a6d	-0.04844134
102	0x3b468b2e	0.003029536
103	0xbca082bd	-0.01959359
104	0xbd89a883	-0.06721594
105	0xbd1b4b7d	-0.037913788
106	0xbc98e8b3	-0.018665647
107	0xbcb1be09	-0.021697061
108	0xbd2fcf4f	-0.042922314
109	0xbda417d4	-0.08012357
110	0xbcc3c9fe	-0.023900028
111	0x3d4c0195	0.049806196
112	0xbd1e8f3f	-0.03871083
113	0x3d2d9fcb	0.04238872
114	0x3d28c3e3	0.041202437
115	0xbd071086	-0.032974742
116	0xbc3b33de	-0.01142594
117	0x3d068305	0.032839794
118	0xbc7af27d	-0.015316603
119	0xbcd168ac	-0.025562607
120	0xbc7c2c09	-0.015391358
121	0xbcdd0f7c	-0.026984923
122	0xbda83f55	-0.082152046
123	0xbd9da1c4	-0.0769687
124	0x3c309ec1	0.010780037
125	0xbc3334bd	-0.010937867
126	0x3cdb2ed3	0.026755726
127	0xbd1f157a	-0.03883884
128	0xbd7c2833	-0.061561774
129	0x3d05e745	0.03269126
130	0x3ba0747f	0.0048967
131	0xbbc23a3c	-0.0059273522
132	0xbccc29b7	-0.024922235
133	0xbd682b5d	-0.05668198
134	0xbb09789c	-0.002097643
135	0xbd5a98ed	-0.053368498
136	0xbcc58b75	-0.02411435
137	0x3cb2833a	0.02179109
138	0xbd074256	-0.033022247
139	0xbb5e32fd	-0.0033904903
140	0x3c85ddd5	0.01634113
141	0x3c808e1f	0.015692769
142	0xbd62a60c	-0.055334136
143	0xbd21d303	-0.039507877
144	0xbd72014c	-0.059083268
145	0x3b2c8f56	0.0026330552
146	0x3d1fddd1	0.0390299
147	0xbdac935e	-0.084265456
148	0xbd322f23	-0.043501984
149	0xbd3f9394	-0.0467716
150	0xbd2489a3	-0.040170323
151	0xbc95e36d	-0.018296922
152	0x3cdf91f5	0.027291277
153	0xbd052605	-0.03250696
154	0xbd8415bb	-0.06449457
155	0x3cf79c5f	0.03022593
156	0x3ca1ab7e	0.019735094
157	0xbc4f0af3	-0.012636888
158	0xbd6ba086	-0.057526134
159	0xbc9f1a6f	-0.019421784
160	0xbd9822f2	-0.0742854
161	0xbd78c558	-0.060735077
162	0xbd44c874	-0.04804273
163	0xbd8442eb	-0.06458076
164	0xbd1c7dea	-0.03820602
165	0xbc4e0b7f	-0.012575983
166	0x3bcab9de	0.006186708
167	0xbd07262b	-0.032995384
168	0xbd05a646	-0.032629274
169	0xbcfb7885	-0.030697117
170	0xbda5b354	-0.08090845
171	0xbd727c9c	-0.059200868
172	0xbd9b6c9c	-0.07589075
173	0xbd0d7b0d	-0.03454118
174	0xbc89122a	-0.016732294
175	0xbcf966f9	-0.030444609
176	0xbd485f9f	-0.048919316
177	0x3a25d4c7	0.0006325957
178	0xbd2bffa7	-0.041991856
179	0x3c09ae84	0.008403424
180	0xbc86dcf6	-0.016462784
181	0xbc285692	-0.010274546
182	0x3d3dd4ce	0.046345524
183	0x3a5f975d	0.000852933
184	0xbd45fcf0	-0.048336923
185	0x3d355dc0	0.04427886
186	0x3d399482	0.045307644
187	0xbd3b4db7	-0.04572841
188	0xbd2b4925	-0.041817803
189	0x3ca22411	0.019792588
190	0xbcb59c87	-0.022169365
191	0xbbed2cd7	-0.0072380113
192	0xbc3a5725	-0.011373316
193	0x3cccabcc	0.024984263
194	0xbd7a28cc	-0.061074063
195	0x3c759b17	0.01499059
196	0xbcadc8e1	-0.02121395
197	0xbd64325b	-0.055712085
198	0x3cca5976	0.024700861
199	0xbbad02a1	-0.0052798544
200	0x3ad4c781	0.0016233773
201	0x3cdb5011	0.026771577
202	0x3cd1227d	0.02552914
203	0xbd0793ee	-0.03310006
204	0xbd309264	-0.04310836
205	0x3bf88719	0.0075844643
206	0x3d02abe5	0.031902213
207	0xbd0255ab	-0.03181998
208	0xbb69eb15	-0.0035693098
209	0xbd305239	-0.043047164
210	0xbd231296	-0.039812647
211	0xbd45ce36	-0.04829236
212	0x3bcb98ec	0.006213298
213	0x3cc2846f	0.02374479
214	0xbdb07c1c	-0.08617422
215	0xbd3c2aec	-0.04593937
216	0xbd343597	-0.04399642
217	0x3cd63b77	0.026151402
218	0xbd92c85e	-0.07167123
219	0x3d1375fb	0.036001187
220	0xbd55a9ca	-0.052163877
221	0x3cb2ebe8	0.021841004
222	0x3ca78601	0.02044964
223	0xbd196e40	-0.03745866
224	0xbd6f0d67	-0.05836239
225	0xbd4e5d2d	-0.050381828
226	0x3c4608b2	0.012087034
227	0xbd863be6	-0.065543935
228	0x3b847f26	0.0040434776
229	0xbd0635b5	-0.032766063
230	0xbd3112a1	-0.043230657
231	0xbd3c16e1	-0.045920257
232	0xbb16492b	-0.0022931795
233	0x3c4d0a54	0.012514669
234	0x3c1839be	0.009291111
235	0xbdb5bf89	-0.08874423
236	0xbbabfb1c	-0.0052484404
237	0x3d25bac5	0.04046132
238	0x3d08ad36	0.03336831
239	0xbbb47fb1	-0.005508386
240	0xbce9d8d3	-0.028545773
241	0x3d472c9d	0.04862653
242	0xbc45a78e	-0.012063874
243	0xbd5e42bc	-0.05426286
244	0xbd82889e	-0.06373714
245	0xbb8ad5f4	-0.004236931
246	0xbd05b9f0	-0.032648027
247	0x3b48792c	0.0030589802
248	0xbd418079	-0.04724166
249	0xbd9ccfe4	-0.076568395
250	0xbdac4d5d	-0.084131934
251	0x3bff3c7b	0.0077891923
252	0xbbad6579	-0.0052916375
253	0xbd0e33a9	-0.034717236
254	0xbc86eb0c	-0.016469501
255	0xbd3e0b31	-0.04639739

conv2.bias f4 [64]
0	0xbd3d6ffe	-0.046249382
1	0xbcdf39b5	-0.027249197
2	0xbc8497cf	-0.01618567
3	0xbde3a72c	-0.1111587
4	0xbdeba123	-0.11505344
5	0xbda5f8b7	-0.08104079
6	0xbd11eb0d	-0.035624553
7	0xbd0c1073	-0.034195375
8	0xbcf75142	-0.030190114
9	0xbd60aa43	-0.054849874
10	0xbd949037	-0.07254069
11	0xbdd54c43	-0.104149364
12	0xbdaefbaf	-0.085440986
13	0xbd989bf2	-0.07451619
14	0xbd1ac948	-0.037789613
15	0xbd221e3f	-0.039579626
16	0x3bee2d50	0.0072685853
17	0xbdff6977	-0.12471288
18	0xbcad2954	-0.02113787
19	0x3c2280f1	0.009918437
20	0xbc67e214	-0.014153022
21	0x386058e0	5.3488533e-05
22	0x3cedff11	0.02905229
23	0x3c19473f	0.009355365
24	0xbd4f62c3	-0.050631296
25	0xbd19e71f	-0.03757393
26	0x3d3acfbf	0.04560828
27	0xbde49f77	-0.11163228
28	0xbd086069	-0.03329507
29	0x3c248c9c	0.0100432895
30	0xbcf372d1	-0.029717835
31	0x3ca3843a	0.019960511
32	0x3d2b068a	0.041754283
33	0xbd894a15	-0.06703583
34	0xbd539dfa	-0.05166433
35	0xbd71e8b6	-0.05905982
36	0xbb7e90e8	-0.0038843695
37	0xbd28b0bf	-0.041184183
38	0xbb9a3e60	-0.0047071427
39	0xbc9684ed	-0.01837393
40	0xb9f85d27	-0.0004737165
41	0xbc71f18c	-0.014767062
42	0xbcb74384	-0.022371061
43	0xbd4c84df	-0.049931403
44	0xbd284bf8	-0.041088074
45	0x3dbacec6	0.0912147
46	0x3be64384	0.0070270915
47	0xbd91ac75	-0.07112972
48	0x3cc521ce	0.02406397
49	0x3ce0fcfc	0.027464382
50	0x3cb96650	0.022631794
51	0xbc530930	-0.012880608
52	0xbd0e6817	-0.034767237
53	0xbddca3c3	-0.107734226
54	0xbd62cbb2	-0.05537004
55	0xbdc1bb2f	-0.094595306
56	0xbc20130e	-0.009770168
57	0x3bfc8704	0.007706525
58	0xbdd8f190	-0.105929494
59	0xbd156c45	-0.036480207
60	0xba9714e6	-0.0011526614
61	0xbd0222b5	-0.03177138
62	0xbded8f74	-0.11599627
63	0xbd8cbb88	-0.06871706

conv3.weight f4 [128, 64, 3, 3]
0	0xbc015240	-0.007893145
1	0x3b1e2bab	0.0024134915
2	0xbcb2f80e	-0.021846797
3	0x3d03de9f	0.03219473
4	0xbb9075eb	-0.004408588
5	0x3d00b177	0.031419244
6	0xbcf41870	-0.029796809
7	0x3c0972fb	0.00838923
8	0xbcf027bb	-0.02931582
9	0x3e371db6	0.17882428
10	0x3dcfca17	0.101459675
11	0x3d91f1e6	0.071262166
12	0x3d70eb3d	0.05881809
13	0xbd6e120d	-0.058122683
14	0xbc7f5387	-0.015583879
15	0x3d2b9142	0.041886576
16	0xbe08b136	-0.1334885
17	0x3d89f750	0.06736624
18	0xbb9a32d8	-0.004705768
19	0x3d8af9b4	0.06785908
20	0xbcdb77dd	-0.026790554
21	0xbdf50a63	-0.11964872
22	0xbd8300b1	-0.06396616
23	0x3dc12721	0.09431291
24	0xbdf62967	-0.120196156
25	0x3da024ee	0.07819544
26	0x3ba057f5	0.004893298
27	0xbe4dc21f	-0.20093583
28	0xbdaf5ed7	-0.08563011
29	0xbdf011bd	-0.11722133
30	0xbda7dffa	-0.08197017
31	0xbe302a78	-0.172037
32	0x3c120e4b	0.0089145405
33	0xbc5ad7c0	-0.013357103
34	0xbd422cb4	-0.047405913
35	0x3d1b838f	0.03796726
36	0x3c430d96	0.011905095
37	0xbe1a167c	-0.1504764
38	0x3d94cf0d	0.07266054
39	0x3df63723	0.12022235
40	0xbe04ba94	-0.12961799
41	0xbcf84f0c	-0.03031113
42	0xbcbfd530	-0.023417085
43	0xbe02e726	-0.12783489
44	0xbe96bbc8	-0.2944014
45	0xbcc3bbff	-0.023893354
46	0x3cf53622	0.02993304
47	0xbcbbb74b	-0.02291455
48	0xbb1329a6	-0.0022455244
49	0x3c7b09d5	0.015322168
50	0x379cbca7	1.8684497e-05
51	0x3c58c0a6	0.013229525
52	0xbce34aab	-0.027745565
53	0xbc29ccbb	-0.010363753
54	0x3d6a8405	0.05725481
55	0xbc9c4300	-0.019074917
56	0xbdd27f57	-0.102781944
57	0xbd503eb7	-0.05084106
58	0x3d74d745	0.05977561
59	0xbd25b6ca	-0.040457524
60	0xbc98e6c0	-0.018664718
61	0xbe1750ba	-0.14776888
62	0x3d1a9ab5	0.037745196
63	0xbdd506a5	-0.10401658
64	0xbd94d6b7	-0.07267516
65	0xbd57518b	-0.052568
66	0xbd14da57	-0.036341038
67	0xbd02d474	-0.031940892
68	0xbc409d2f	-0.0117562255
69	0xbd2624ad	-0.04056232
70	0xbe00bc43	-0.12571816
71	0xbce38312	-0.02777246
72	0x3d625876	0.055260144
73	0x3e1fd967	0.15610276
74	0xbe0d6e8e	-0.13811705
75	0xba7c2c8e	-0.0009619676
76	0x3e16c1e1	0.14722396
77	0xbe4d4f8c	-0.20049876
78	0x3aaeab56	0.0013326209
79	0x3bf8a5f1	0.007588141
80	0x3ba2bc57	0.0049662995
81	0xbd0cbcc8	-0.034359723
82	0xbe413a5e	-0.18869922
83	0xbd9a7106	-0.07541089
84	0xbd664b23	-0.056224
85	0xbe1a9561	-0.15096046
86	0xbcc19fee	-0.02363583
87	0xbe1ee6e3	-0.15517764
88	0xbc103b94	-0.008803267
89	0x3c764799	0.015031719
90	0x3d53d2bd	0.051714648
91	0x3d952677	0.07282727
92	0x3bbde629	0.0057952595
93	0x3b1ee1a9	0.002424339
94	0xbc0584e4	-0.008149359
95	0xbd90afbd	-0.070647694
96	0x3d17a626	0.037023686
97	0x3cdb4d91	0.026770385
98	0xbe0617ad	-0.13094969
99	0xbac08cfa	-0.0014690452
100	0xbdbe29a6	-0.092852876
101	0xbdb2944e	-0.08719693
102	0xbe17abf9	-0.14811696
103	0xbdcac1e9	-0.09900267
104	0xbe0475a6	-0.12935504
105	0xbe2c8760	-0.16848516
106	0xbd8533db	-0.06504031
107	0xbe19b22d	-0.15009375
108	0xbbb3e52b	-0.0054899654
109	0xbd0ad29f	-0.03389227
110	0xbc0e12ab	-0.008671443
111	0xbbb86076	-0.0056267334
112	0x3b83f260	0.004026696
113	0x3c8e041e	0.017335948
114	0x3ca0d326	0.019631933
115	0xbcbf1bc3	-0.023328668
116	0xbcbc706e	-0.02300283
117	0xbcf180bd	-0.029480333
118	0xbce575be	-0.028010245
119	0x3d504b8a	0.05085329
120	0xbca063f1	-0.019578906
121	0x3ccd7fa5	0.02508528
122	0x3b81121a	0.0039389255
123	0xbcadfc68	-0.02123852
124	0xbd6f88df	-0.05848014
125	0xbe542cbb	-0.20720188
126	0xbd3a7537	-0.04552194
127	0xbe05c7dd	-0.13064523
128	0xbd229527	-0.039693024
129	0x3e76309f	0.24041985
130	0xbdeb5eac	-0.114926666
131	0xbc6aabed	-0.014323217
132	0x3da3c7f4	0.079971224
133	0xbdbde856	-0.0927283
134	0xbe9a4957	-0.3013408
135	0xbe304f65	-0.17217787
136	0xbda2220e	-0.07916652
137	0xbe3c2072	-0.18371752
138	0xbe8f1b78	-0.27950644
139	0xbd895616	-0.06705873
140	0xbc67dd03	-0.014151814
141	0xbeb25e3f	-0.3483753
142	0xbd0590e5	-0.032608885
143	0xbd07dcbc	-0.033169493
144	0xbe2acd97	-0.16679989
145	0xbd3c1826	-0.045921467
146	0xbe82aa1f	-0.25520417
147	0x3c45f8a7	0.012083209
148	0xbe525553	-0.20540361
149	0x3d4a73bc	0.04942678
150	0x3cadb6fe	0.021205422
151	0xbe5136d0	-0.20431066
152	0xbcaca51c	-0.021074824
153	0x3c06d19d	0.008228687
154	0xbd84feb6	-0.06493895
155	0x3d928ccb	0.071557604
156	0x3e32dc6e	0.174669
157	0x3d33603b	0.043792944
158	0xbc0cecca	-0.008601377
159	0x3d96eac4	0.07368997
160	0x3d5c5d0d	0.053799678
161	0xbe036991	-0.12833239
162	0x3d795d2e	0.06087988
163	0x3d3afedc	0.04565321
164	0xbd7fb3fd	-0.06242751
165	0xbd821c25	-0.063530244
166	0xbd3488d3	-0.0440758
167	0xbe663809	-0.22482313
168	0xbd627050	-0.05528289
169	0x3d30b576	0.043141805
170	0x3cf87f44	0.030334122
171	0xbd0160fc	-0.031586632
172	0xbd18f64c	-0.037344262
173	0xbe51b431	-0.20478894
174	0xbdcad501	-0.099039085
175	0xbdcd4f15	-0.10024849
176	0x3d4f006a	0.050537504
177	0xbd8ba009	-0.06817634
178	0x3e2388be	0.15970132
179	0x3d85e0a8	0.065369904
180	0xbe495cc4	-0.19664294
181	0xbde7b75b	-0.11314269
182	0x3dab9301	0.08377648
183	0xbd9ad1d3	-0.07559552
184	0x3e1c74d7	0.15278946
185	0x3dbf19c6	0.09331088
186	0xbdb0996a	-0.086230114
187	0xbd37641d	-0.04477321
188	0xbdc56f95	-0.09640423
189	0xbe11661a	-0.14199105
190	0xbdb56eab	-0.08858999
191	0x3dc25b75	0.094901
192	0xbddc3979	-0.107531495
193	0x3da04726	0.078260705
194	0xbd68d250	-0.056841195
195	0xbe172ef9	-0.14764012
196	0xbe2dbb79	-0.16966046
197	0xbcefce09	-0.02927305
198	0xbda6cd70	-0.08144653
199	0xbd8fb504	-0.07016948
200	0xbd59dafd	-0.05318736
201	0x3d568cf8	0.052380532
202	0xbe347217	-0.17621647
203	0xbd3b6dd4	-0.045759037
204	0xbd399327	-0.04530635
205	0x3d4b308c	0.049606845
206	0xbdee0e83	-0.11623862
207	0xbc2ae601	-0.010430814
208	0x3c0b5d65	0.008506154
209	0xbe39b422	-0.18135121
210	0xbd6ab2a8	-0.057299286
211	0xbdc4f00a	-0.09616096
212	0x3cbac256	0.022797745
213	0xbdfbb41e	-0.12290214
214	0xbda38580	-0.079844475
215	0x3e707689	0.23482718
216	0xbd7d24ff	-0.06180286
217	0xbe352aeb	-0.17692153
218	0xbd7e15b0	-0.0620324
219	0xbe26935b	-0.16267149
220	0xbe82e43a	-0.25564748
221	0xbe26a708	-0.16274655
222	0xbe07c12b	-0.13257281
223	0xbd21f7a9	-0.039542828
224	0x3d92207b	0.071351014
225	0xbe3c1edc	-0.18371147
226	0xbddcb193	-0.10776057
227	0xbcf0d7af	-0.029399721
228	0xbe17b2c1	-0.14814283
229	0xbe17d754	-0.14828235
230	0x3d8de1e9	0.069278546
231	0xbe478c87	-0.194872
232	0xbd85a46a	-0.065255
233	0xbd911003	-0.07083132
234	0x3dbf9ab3	0.093556784
235	0x3d29b9f1	0.041437093
236	0xbdb71eec	-0.08941445
237	0xbc213323	-0.009838852
238	0xbd29f52d	-0.041493583
239	0xbd4e8969	-0.050424013
240	0x3da597cb	0.08085593
241	0xbe578300	-0.21046066
242	0x3d3e9f28	0.046538502
243	0xbdfd668e	-0.123730764
244	0xbd8f8e20	-0.0700953
245	0xbc99a1aa	-0.018753845
246	0xbe158119	-0.14600028
247	0xbd8461fd	-0.06464002
248	0xbe9180e5	-0.2841865
249	0xbe8e4aef	-0.27791545
250	0xbd02ac06	-0.031902336
251	0x3e13a12d	0.14416952
252	0x3c86232a	0.01637419
253	0x3beb2ba9	0.0071768356
254	0x3cf6b867	0.030117227
255	0xbd0d7714	-0.03453739

conv3.bias f4 [128]
0	0xbd972ad8	-0.07381219
1	0xbd873c1e	-0.06603263
2	0xbc50712a	-0.012722293
3	0xbd1b0cff	-0.03785419
4	0xbc8cb5f2	-0.017176602
5	0xbcca48e3	-0.024692958
6	0xbc9c6c12	-0.0190945
7	0xbd99935a	-0.07498808
8	0xbd64d015	-0.055862505
9	0xbbd432da	-0.0064757885
10	0xbd0a7914	-0.033806875
11	0xbd9642ea	-0.073369816
12	0xbdd8c80e	-0.105850324
13	0xbda6a24c	-0.081364244
14	0xbdae4793	-0.085097454
15	0xbda51adb	-0.08061763
16	0x3c81ee21	0.015860619
17	0xbda66bb7	-0.08126014
18	0xbbaa38b8	-0.0051947497
19	0xbd42b199	-0.04753265
20	0xbdb81d22	-0.08989932
21	0xbd24016a	-0.04004041
22	0xbd909595	-0.070597805
23	0xbcf8aee4	-0.030356832
24	0xbd92b7df	-0.07163977
25	0xbd59e2cf	-0.053194817
26	0xbcfb9daf	-0.030714838
27	0xbca90466	-0.02063198
28	0xbd87a59f	-0.066233866
29	0xbd3c5d79	-0.04598758
30	0xbd904f25	-0.070463456
31	0xbd10feed	-0.035399366
32	0xbdc0862e	-0.09400593
33	0xbd49edc4	-0.049299017
34	0xbd8cf819	-0.068832584
35	0xbafa20d9	-0.0019083276
36	0xbce8a666	-0.028399657
37	0xbd068a6d	-0.032846857
38	0xbbe8e4ab	-0.0071073375
39	0xbceac05f	-0.028656183
40	0xbd4d6870	-0.050148427
41	0xbdff4005	-0.12463383
42	0xbce054fc	-0.027384274
43	0xbd7190af	-0.05897587
44	0xbd29017b	-0.041261178
45	0x3b8408a7	0.0040293518
46	0x3c508d1f	0.012728958
47	0xbd975b5f	-0.073904745
48	0xbce37bfc	-0.027769081
49	0xbd530f1a	-0.051528074
50	0x3b0b9c0f	0.0021302735
51	0xbdc32b98	-0.09529799
52	0xbd7b8625	-0.061407227
53	0x3c82f4cf	0.015985874
54	0xbd15900d	-0.03651433
55	0xbd537e08	-0.051633865
56	0xbd950d1e	-0.072778925
57	0x3d07fb74	0.03319879
58	0xb98807a1	-0.00025945625
59	0xbdfa6ce1	-0.12227798
60	0xbd66066a	-0.05615846
61	0xbd25fe10	-0.040525496
62	0xbd20db36	-0.039271556
63	0xbda7c6e9	-0.08192236
64	0x3b1b3529	0.002368281
65	0xbd0c16e1	-0.034201507
66	0xbcdd2e05	-0.026999483
67	0xbd8569d4	-0.06514326
68	0xbd649686	-0.055807613
69	0xbc21a60b	-0.009866248
70	0xbc002809	-0.007822045
71	0xbdede967	-0.116167836
72	0x3c11fcbe	0.008910356
73	0xbc75b31e	-0.014996318
74	0xbcc29bd8	-0.023755953
75	0x3ce0ec4c	0.027456425
76	0xbd84d5ca	-0.064860895
77	0xbd685047	-0.056717183
78	0x3b339878	0.002740411
79	0xbd79db0a	-0.060999908
80	0xbc2cbb01	-0.010542632
81	0x3cb6a334	0.022294618
82	0xbd99c6b0	-0.075086
83	0xbc687adb	-0.014189447
84	0xbd62fcce	-0.055416875
85	0xbb1c6728	-0.0023865197
86	0x3cbdbc80	0.023161173
87	0x3c2bf45f	0.010495274
88	0xbc2cd9f6	-0.010550013
89	0xbd5340ea	-0.05157558
90	0xbdbd7b67	-0.09252053
91	0xbd7801d3	-0.060548615
92	0xbd8561b4	-0.06512776
93	0xbdd86f91	-0.105681546
94	0xbd392886	-0.04520466
95	0x3c374dc8	0.011187978
96	0xbde209a6	-0.110369965
97	0xbcf44740	-0.02981913
98	0x3c615475	0.013753046
99	0xbd926549	-0.07148225
100	0xbcd1a8a7	-0.025593115
101	0xbd9cc259	-0.076542564
102	0xbd8bc485	-0.068245925
103	0xbd16547a	-0.036701657
104	0x3b87c9d6	0.0041439338
105	0x3d02e08d	0.03195243
106	0xbd373fd1	-0.044738594
107	0x3cb0ece3	0.021597331
108	0xbccc3fd0	-0.024932772
109	0xbd240184	-0.040040508
110	0x3c660457	0.014039121
111	0xbdb5b72f	-0.0887283
112	0xbceb9d79	-0.028761612
113	0xbd4f9bf5	-0.05068584
114	0xbc07bc04	-0.0082845725
115	0x39dda558	0.00042275595
116	0xbc203c1f	-0.009779959
117	0xbd243173	-0.04008622
118	0x3a8718c7	0.0010307067
119	0xbc3afe5c	-0.011413183
120	0x3ccc7d33	0.024962043
121	0x3bb7bb7e	0.0056070676
122	0xbd950a79	-0.07277388
123	0x3bb28e6e	0.005449108
124	0xbd0b7e08	-0.03405574
125	0xbb53b4ea	-0.0032303878
126	0xbdbd1e2a	-0.09234269
127	0xbd3e5167	-0.04646435

fc1.weight f4 [10, 128]
0	0xbe2f99bc	-0.17148489
1	0xbe8810cb	-0.26575312
2	0x3d40ac80	0.04703951
3	0x3d818ad4	0.063253075
4	0x3b850d02	0.0040603885
5	0xbbc4dfca	-0.006008123
6	0x3dea33ed	0.11435685
7	0xbeba73f9	-0.36416605
8	0xbc2496d6	-0.010045728
9	0xbe4d632c	-0.20057362
10	0x3d843d4e	0.064570054
11	0x3db9c510	0.0907079
12	0xbe2f927d	-0.17145725
13	0xbd26bb3b	-0.0407059
14	0xbe0302ee	-0.12794086
15	0xbe8bb2e1	-0.2728491
16	0x3e420e17	0.18950687
17	0xbe406da7	-0.18791829
18	0x3dea6afd	0.11446188
19	0x3d0caa26	0.034341954
20	0x3d003682	0.031301983
21	0x3d93f8ef	0.07225215
22	0x3d41ed0e	0.047345214
23	0x3e279aa5	0.16367586
24	0x3c4a9a91	0.012365953
25	0xbdd487ff	-0.10377502
26	0xbd9b95bc	-0.07596919
27	0x3da2c213	0.07947173
28	0xbe233b93	-0.15940695
29	0xbea5f0f6	-0.324104
30	0xbe0bd06f	-0.1365373
31	0xbe140b75	-0.14457496
32	0x3e062d60	0.13103247
33	0xbe3692fc	-0.17829508
34	0x3e0d2f8e	0.13787672
35	0xbc044faf	-0.008075639
36	0xbd919676	-0.07108776
37	0x3c689d3f	0.014197647
38	0x3d0706c0	0.03296542
39	0x3dae3dd5	0.08507887
40	0x3cef95bb	0.029246202
41	0xbe029ba1	-0.1275468
42	0x3d341cef	0.043972906
43	0x3d8af9e5	0.06785945
44	0x3e029315	0.1275142
45	0x3da450f8	0.08023256
46	0xbec763d5	-0.38943353
47	0xbe31d081	-0.17364694
48	0x3d4751a9	0.04866186
49	0xba07681e	-0.0005165356
50	0xbe08dc97	-0.13365398
51	0xbe420039	-0.18945397
52	0xbe28c847	-0.1648265
53	0xbe9a9b58	-0.30196643
54	0x3d691911	0.05690867
55	0x3da14904	0.07875255
56	0xbdbc341e	-0.09189628
57	0x3dcbcf84	0.0995169
58	0xbcb38f4b	-0.021918913
59	0xbe2c929a	-0.16852799
60	0xbe6167df	-0.2201228
61	0xbd614cac	-0.05500476
62	0x3de3f341	0.111303814
63	0xbea4bc4e	-0.32174915
64	0xbd31ad24	-0.04337801
65	0x3d068ad0	0.032847226
66	0xbc7009b1	-0.014650748
67	0x3e0c0025	0.1367193
68	0x3ae4b764	0.0017449674
69	0xbe3083aa	-0.17237726
70	0x3e1c2c3e	0.15251252
71	0xbd2c617d	-0.04208516
72	0xbec2ae5f	-0.3802366
73	0x3c2fdf40	0.010734379
74	0x3d4d5fdd	0.05014025
75	0xbec11e93	-0.3771864
76	0x3dcd5077	0.10025113
77	0x3de7ca36	0.113178656
78	0xbe3bcfd1	-0.18340994
79	0x3da51f2c	0.08062586
80	0xbe13b163	-0.14423136
81	0x3d21d20f	0.039506968
82	0xbcfdcf8f	-0.03098276
83	0x3e27d695	0.1639045
84	0xbdb00775	-0.08595172
85	0x3d897ef0	0.067136645
86	0x3c52fb96	0.012877366
87	0xbe0f5cb5	-0.14000209
88	0x3e0137f7	0.12619005
89	0x3d662065	0.056183238
90	0xbe921177	-0.2852895
91	0xbc97a6b4	-0.018512107
92	0x3d3c5c3b	0.045986395
93	0xbe1d2b69	-0.15348591
94	0x3dba90a3	0.091096185
95	0x3d112f21	0.035445336
96	0xbe52f171	-0.20599915
97	0xbe2d55c9	-0.16927256
98	0xbd6b3a5d	-0.057428706
99	0x3d4c7f8e	0.049926333
100	0xbcfe9843	-0.031078463
101	0x3dade70b	0.084913336
102	0xbe33734e	-0.17524454
103	0xbdadc748	-0.084852755
104	0xbe5af98e	-0.2138426
105	0x3df90876	0.12159817
106	0xbe3111fb	-0.17292015
107	0xbd6e944e	-0.058246903
108	0xbe680a52	-0.22660187
109	0xbd53a5ab	-0.051671665
110	0x3d94ac12	0.07259382
111	0x3d899dbd	0.06719539
112	0xbda1da1a	-0.07902928
113	0xbda94e21	-0.08266855
114	0xbdfe152b	-0.12406381
115	0x3c886f36	0.016654592
116	0x3da5750d	0.08078966
117	0xbda054ef	-0.078287
118	0xbd11dd7c	-0.035611615
119	0x3d84c1d8	0.06482285
120	0x3e38ab9f	0.18034218
121	0xbea0cec4	-0.3140775
122	0xbe1abfc2	-0.15112212
123	0x3d99cc43	0.07509663
124	0xbd6d4837	-0.057930198
125	0x3dfa7a16	0.12230317
126	0x3cf0bd91	0.029387267
127	0x3964edc7	0.00021832353
128	0xbe133942	-0.14377311
129	0xbd5299cb	-0.0514162
130	0xbcece3f0	-0.028917283
131	0xbe0a0b48	-0.13480866
132	0x3d2c03ba	0.04199574
133	0x3da4ec25	0.080528535
134	0xbe0029cc	-0.12515944
135	0x3aaaf51f	0.0013043022
136	0xbdae7222	-0.08517863
137	0x3d7b4577	0.061345544
138	0x3dccca7e	0.0999956
139	0x3d4b9166	0.04969921
140	0xbe090f75	-0.13384803
141	0xbda70b7f	-0.081564896
142	0xbe8b736a	-0.2723649
143	0xbe603478	-0.21895015
144	0x3d18ea5d	0.03733288
145	0xbebd6e5d	-0.36998263
146	0xbea99327	-0.3312008
147	0x3e17c313	0.14820509
148	0x3e3756a1	0.1790414
149	0x3d96632c	0.07343134
150	0x3d77d6a4	0.06050743
151	0x3d2dc673	0.042425584
152	0x3baa8121	0.0052033816
153	0x3d9742a7	0.0738576
154	0x3cef43b0	0.02920708
155	0x3d126764	0.035743132
156	0x3dbfb355	0.09360377
157	0x3d44cf20	0.048049092
158	0x3dc047ca	0.09388693
159	0xbde6e742	-0.11274578
160	0xbe855eb6	-0.2604882
161	0xbe2f239c	-0.17103428
162	0xbe86f57a	-0.2635916
163	0x3d8aadfe	0.067714676
164	0xbddd4e4e	-0.10805951
165	0x3d0b369e	0.033987634
166	0x3e1bfa22	0.15232137
167	0xbe48eb07	-0.19620906
168	0xbe07ee9c	-0.13274616
169	0xbdfb8d5b	-0.12282821
170	0x3b7763c0	0.0037748665
171	0xbe3329aa	-0.17496362
172	0xbe390ead	-0.18072005
173	0xbcd14076	-0.025543433
174	0x3e1c8aaf	0.15287279
175	0xbe7517b2	-0.2393482
176	0xbdcccc41	-0.09999896
177	0x3e0992df	0.13434933
178	0xbddc9311	-0.10770238
179	0xbe874fe1	-0.2642813
180	0xbe4c5d32	-0.19957426
181	0x3e357301	0.17719652
182	0xbd088aac	-0.033335373
183	0x3b46a31b	0.003030962
184	0xbda8ea59	-0.08247823
185	0xbebde154	-0.37085974
186	0x3d8c61e6	0.0685461
187	0xbcde55d3	-0.027140534
188	0x3e097787	0.13424502
189	0xbd8196c1	-0.06327582
190	0x3e439328	0.19099104
191	0xbe5cbf30	-0.21557307
192	0x3df0a2cc	0.11749801
193	0xbe2e94a4	-0.1704889
194	0xbd4f60e3	-0.050629508
195	0xbe6a79b6	-0.22897992
196	0xbce65010	-0.028114349
197	0xbec5305d	-0.3851346
198	0xbd2d1378	-0.042254895
199	0x3b96e1b8	0.0046045445
200	0x3d5de79a	0.05417595
201	0xbdb7af1f	-0.089689486
202	0x3df310d2	0.118684426
203	0x3e661f91	0.22472979
204	0xbe9d6198	-0.3073852
205	0xbe65e42e	-0.22450325
206	0x3da4acdf	0.08040785
207	0xbe9540ef	-0.29151103
208	0x3dde6aa3	0.10860183
209	0x3d91eaf1	0.0712489
210	0xbe879bbb	-0.26486
211	0xbdc32721	-0.095289476
212	0x3dbb436d	0.0914372
213	0x3dbc180c	0.09184274
214	0xbd0b7067	-0.034042742
215	0xbdcd67fe	-0.100296006
216	0xbea3f67a	-0.32023984
217	0x3cc727a7	0.0243109
218	0x3ccae75c	0.024768524
219	0xbdd76cd7	-0.105188064
220	0xbdeac336	-0.11463015
221	0x3da521a8	0.0806306
222	0x3e13f36a	0.14448324
223	0xbda45bb0	-0.080253005
224	0xbe107e59	-0.14110698
225	0x3d8bfd51	0.06835426
226	0xbd978966	-0.073992535
227	0x3bdc4bc3	0.0067228987
228	0x3d016727	0.031592514
229	0xbeacc04e	-0.33740467
230	0xbe63b20e	-0.22235891
231	0xbe3ddb76	-0.18540749
232	0x3cfb30d5	0.030662933
233	0x3de06c89	0.109582014
234	0x3d2fd296	0.04292544
235	0xbe10ebb3	-0.14152412
236	0xbd8480e1	-0.06469894
237	0xbea03da7	-0.31297037
238	0x3d731ccb	0.05935363
239	0xbda24e51	-0.07925094
240	0x3d172ab8	0.036905974
241	0xbdbfc3cb	-0.093635164
242	0xbe5caf67	-0.21551286
243	0xbe9543a0	-0.29153156
244	0xbe6d33d7	-0.23164307
245	0xbcb4619e	-0.022019204
246	0xbd7e30bc	-0.062058195
247	0x3ccccf06	0.02500106
248	0xbeac658b	-0.3367122
249	0xbda6ee49	-0.08150918
250	0xbd9a75d6	-0.07542007
251	0xbe27f889	-0.16403402
252	0xbd9e03f7	-0.077156
253	0xbdcf97a2	-0.101363435
254	0xbe2b6a6b	-0.16739814
255	0x3cdec0a2	0.027191464

fc1.bias f4 [10]
0	0x3e5f992f	0.21835779
1	0x3ec3f540	0.38273048
2	0xbe94651d	-0.28983393
3	0x3cc61b30	0.024182886
4	0x3decb207	0.115573935
5	0xbd3b24f2	-0.04568953
6	0x3c7f5bdc	0.015585866
7	0x3e1a595b	0.15073149
8	0xbe1d94c8	-0.15388787
9	0xbeb04ae9	-0.34432152
