models/test_model.pth (torch, 379044 bytes, 8 tensors)

conv1.weight f4 [32, 1, 3, 3]
000000 dc d6 03 be 80 c4 1c 3e 34 31 98 be 7e 0c e3 be
       -0.12874931 0.15309334 -0.2972504 -0.44345468
000010 0b f8 af be fb 12 57 be a3 63 35 be 37 1a e6 bd
       -0.3436893 -0.21003334 -0.1771379 -0.11235469
000020 39 4a c6 be e7 c6 0e 3e 7e 5c cc bd 7a 8a 83 3e
       -0.38728502 0.13943063 -0.09978579 0.25691587
000030 86 cf a1 3d 45 70 a1 3c 48 74 cc 3e aa c6 a0 be
       0.0790091 0.019706855 0.39932466 -0.3140157
000040 4f e2 a5 3e 02 b7 34 3e 34 c0 25 3e 60 41 9d be
       0.32399222 0.17647937 0.16186601 -0.3071394
000050 70 fc 83 3d 51 51 19 3e cd ff 89 3e 0c 4f 23 bd
       0.06444633 0.14972426 0.26952973 -0.039870307
000060 8b cb 9d 3e ff 5f 16 3e f6 d6 4c 3e b1 0a ba 3e
       0.30819353 0.14685057 0.20003876 0.36336282
000070 cd 7f 87 3e d4 f1 ac 3e 14 c9 23 be c2 1e 60 3e
       0.26464692 0.3377825 -0.15994674 0.21886733
000080 fa 0b d4 3e 1b 23 85 bd 26 69 74 be 7d 43 80 3e
       0.41415387 -0.065008365 -0.23868236 0.2505149
000090 d7 e7 05 be 78 ba 91 be eb a4 58 bd 49 3e 2f 3e
       -0.13076721 -0.28462577 -0.052891653 0.17113604
0000a0 ab 33 b1 3e 51 73 93 3e 6a 58 77 3e 22 f7 19 3e
       0.34609732 0.28798917 0.24154821 0.1503568
0000b0 d5 28 81 3e 6b ef 49 be 18 4f 8b be 1b 9d 9d 3d
       0.25226465 -0.19720237 -0.2720878 0.07695981
0000c0 c5 f6 28 3e 19 a2 5e 3e 54 23 2c 3e 85 59 44 bd
       0.16500385 0.21741523 0.16810352 -0.047936935
0000d0 7a 90 b7 3e 5d 52 a7 3e 84 51 91 3e cc 36 a1 3e
       0.35852414 0.32680026 0.28382504 0.3148712
0000e0 12 d6 2b be 9e ae a0 3e 77 e3 4c 3c d4 93 ad 3e
       -0.1678088 0.31383222 0.012505404 0.33901846
0000f0 44 e5 9d 3e bf 26 d2 3d 3d 17 55 be 67 55 b4 be
       0.30838978 0.102612965 -0.20809646 -0.35221407
000100 ab eb 9f be 2a 30 9d bd ce 7c fa 3d 1e 7c 70 3e
       -0.31234488 -0.07675202 0.12230836 0.23484847
000110 2b 5b 54 3e 6a aa 3c 3e 25 81 2d bd f3 06 a0 3c
       0.20737903 0.18424383 -0.04235949 0.019534564
000120 9c d8 85 bd 6c 1f 3f 3e b4 e3 23 3e 4c 31 4a 3d
       -0.065354556 0.1866433 0.1600483 0.04936342
000130 60 d6 3c 3e 78 df 60 be ec 81 64 3d b6 98 eb 3d
       0.18441153 -0.21960247 0.055787966 0.11503737
000140 10 c5 4e 3e 9a 61 a4 be ad df da bc c1 9e ec be
       0.20192361 -0.32105714 -0.026717985 -0.4621487
000150 1e 88 ed be 56 9a b5 be 26 3b e7 bd 42 15 b4 be
       -0.46392912 -0.3546931 -0.112905785 -0.35172468
000160 ef 93 99 be 8b 43 c4 be d9 0a 45 3e 39 cd c6 3e
       -0.29995677 -0.3833278 0.1924242 0.38828447
000170 6d c0 9a be a3 94 66 3d 9b 53 cf 3e fb ca 0f 3e
       -0.30224934 0.056294095 0.40493473 0.14042275
000180 93 59 96 be 7f 99 32 bc 14 2b 4d 3e d9 c4 2e be
       -0.29365215 -0.010900854 0.20035964 -0.17067279
000190 59 06 4a bd b3 76 8f be 26 54 a5 3e 51 f4 3b 3d
       -0.04932246 -0.28020248 0.32290763 0.045887295
0001a0 10 66 72 3e 03 6b 8a 3d b8 8e 65 bd 96 0b 14 be
       0.23671746 0.06758692 -0.05604431 -0.14457545
0001b0 3f e7 35 bd 7a bf b3 3d ef 23 92 be bf fd 5c bd
       -0.044409987 0.08776756 -0.2854304 -0.05395293
0001c0 ae ca d5 bb 01 1d 86 bb 07 68 12 3d 31 1c 27 3e
       -0.0065244054 -0.004092813 0.03574374 0.16319348
0001d0 8a 4c c9 3e c8 b6 3a 3e d4 23 a8 be df f1 d0 be
       0.39316207 0.18233788 -0.32839835 -0.40809533
0001e0 47 27 61 3e b9 f2 76 be 8e 0f 99 be 3c 4a 01 3f
       0.2198764 -0.24116029 -0.2989468 0.505039
0001f0 ce f9 98 3e 7f 01 46 bc 74 c8 8b 3d 0d d2 c1 3e
       0.29878086 -0.012085318 0.06825343 0.3785557
000200 20 d6 3a 3e 74 e5 fe bc 47 34 b1 be 14 82 42 3e
       0.18245745 -0.031115271 -0.34610197 0.18994933
000210 67 30 fb 3d bb 8b a2 be 61 8b 90 be db bf cc 3d
       0.122650914 -0.3174723 -0.28231338 0.09997531
000220 55 07 c7 bd 6b 43 07 be 60 b4 c1 3d 2d 46 8e bd
       -0.09718195 -0.13209312 0.09458232 -0.06946979
000230 d0 10 ce be 13 60 2b 3e 0d 36 be 3d 95 26 b2 3e
       -0.40247202 0.16735868 0.09287653 0.3479506
000240 91 fd e0 bd 7c f5 b4 3e 12 38 ba 3e f7 7a c3 bb
       -0.10985864 0.3534354 0.36370903 -0.0059655863
000250 00 da b9 3e 92 e4 51 3e e4 bb 88 3e 79 c2 77 bd
       0.36299133 0.20497349 0.2670585 -0.060488198
000260 e5 09 63 be 4a 0d f5 bd 8b e9 a9 bd 42 3e 39 3e
       -0.22171743 -0.11965425 -0.08296498 0.18090156
000270 8e ba 06 bd 80 87 e4 3d f6 b6 f8 bd 4d 3f 7b bc
       -0.032892756 0.11158657 -0.12144272 -0.015334916
000280 c0 cf 9c bd 03 c7 cb 3d 29 08 25 bd 7e 9e 0e 3e
       -0.07656813 0.09950068 -0.040290985 0.13927647
000290 8f 4d 9b be ad a2 07 3e ae 4f 13 3b 63 68 4a 3d
       -0.3033261 0.1324565 0.0022477913 0.049415957
0002a0 59 a6 62 bd 0c 0b 70 be 11 53 9e 3e ee a6 9d be
       -0.055334423 -0.23441714 0.3092275 -0.3079142
0002b0 70 47 d4 3e 4e 65 9f 3e de ab 98 be e4 bf 71 be
       0.41460752 0.31131977 -0.29818624 -0.23608357
0002c0 0e 5f 80 bd 90 e6 9f be d5 7f d8 be 54 44 f0 be
       -0.0626813 -0.31230593 -0.42285028 -0.4692713
0002d0 18 5b eb bd 67 5f 8c bc d3 3d 8d 3e a0 cc b0 be
       -0.11491984 -0.017135335 0.2758623 -0.34531116
0002e0 09 4d 21 3e 79 a3 e0 3e d7 4c fa be 63 d5 33 be
       0.15752043 0.4387472 -0.4888675 -0.1756187
0002f0 df 39 37 bc ba 29 41 3e 46 f6 b0 3e 83 22 82 bd
       -0.011183231 0.18863574 0.34562892 -0.06354239
000300 b4 dd b1 be 64 c0 7e 3d be 14 a1 3e ed 60 50 be
       -0.3473946 0.062195197 0.31461138 -0.20349474
000310 22 01 df 3c 39 77 f6 bb 31 e4 9f 3e 4b 4f 23 3e
       0.02722222 -0.0075215367 0.31228784 0.15948217
000320 9c d0 55 be 3b 78 8e 3e e6 e1 7e be aa 88 8a be
       -0.2088036 0.27826104 -0.24890861 -0.2705739
000330 d7 8b 3b bc 2a 1d 31 be 07 a2 c7 3c 6b 9e 9c be
       -0.011446915 -0.17296281 0.024369253 -0.30589613
000340 5a ce 68 be 7b 4b e5 be c1 fd 46 3d b9 d0 58 3e
       -0.22734967 -0.4478415 0.048581842 0.21173371
000350 bb 81 21 3d ff 85 cc 3e c2 40 27 be 31 2e a7 3e
       0.03943036 0.3994598 -0.16333297 0.3265243
000360 43 e7 ce bd 5b 3a bd be 3a c9 61 3d a0 e8 8b be
       -0.101027034 -0.36958584 0.055123545 -0.27325916
000370 f6 1c d4 3d 5e 6d cd be 71 6d b2 3e 46 29 32 3e
       0.10357086 -0.40122503 0.34849122 0.17398557
000380 7d 71 61 be a6 3d fb 3d 6c cd 7b be 33 49 d5 bb
       -0.22015949 0.12267618 -0.24590081 -0.00650897
000390 b0 59 01 3e af 1d af be 37 af a6 bd 6e 61 ad 3e
       0.1263187 -0.34202334 -0.08138888 0.33863395
0003a0 06 51 38 3d c3 ed 6c 3e 42 7d 53 3e ee 32 5c 3e
       0.044999145 0.23137574 0.20653251 0.21503803
0003b0 74 cd 6e be 70 0c 43 3e ea 2e fd 3d 6c 54 04 3d
       -0.23320562 0.19047713 0.12362464 0.032307073
0003c0 f0 e1 dc 3c 7f 75 61 bc 9c 63 20 3e 2d 5f b1 bd
       0.026963204 -0.013760923 0.15662998 -0.086607315
0003d0 21 a4 de be e5 2d d9 be 0c 03 a3 bb e9 64 0e be
       -0.43484595 -0.42417827 -0.0049747285 -0.13905682
0003e0 b9 7b 8b be 5f 35 c5 be 54 5d a0 be 8c ec 12 3e
       -0.2724283 -0.3851728 -0.31321204 0.14348048
0003f0 e0 87 77 3e 8b c5 1d be e0 34 4c 3e 22 8e a9 be
       0.24172926 -0.15407388 0.19942045 -0.3311625

conv1.bias f4 [32]
000000 b0 d9 8f 3e 88 1c c1 bb 5a f3 bc 3d 84 92 b5 3d
       0.2809577 -0.005893294 0.09226103 0.08865836
000010 bf ec a9 3e 2a 98 4f 3e 5b 17 59 bd cf 4a 18 3d
       0.33188435 0.2027289 -0.05300079 0.037180718
000020 86 b1 7c 3e 69 fd e3 bd 48 66 4f be 3b 2b ff 3c
       0.24677095 -0.111323185 -0.20253861 0.031148544
000030 8d 6c 8b 3d 32 76 86 3e 40 aa b4 3c 04 9a 19 3d
       0.06807814 0.2626205 0.022053838 0.037500396
000040 4b f8 3a 3e 55 1b 35 3e 8b a2 23 3e 1e 00 2d 3e
       0.18258779 0.17686208 0.15979974 0.16894576
000050 96 a8 19 bd 9c 0d b2 bd 4d 35 f1 bd 8f c3 51 bd
       -0.03751429 -0.08694002 -0.117777444 -0.05121189
000060 3a a7 5a be 7f 2f 0f 3e 6a 54 9d be 34 57 91 3e
       -0.21352854 0.13982962 -0.30728465 0.28386843
000070 22 11 04 bc 87 90 92 be 01 4b 81 3d 21 1d 8e bc
       -0.008060725 -0.2862589 0.06313134 -0.017347874

conv2.weight f4 [64, 32, 3, 3]
000000 e7 74 cc bd 77 e4 08 be a5 9e b3 bd 77 3e 8c bd
       -0.09983235 -0.13368402 -0.087704934 -0.06847852
000010 bd 19 08 be ad ed 83 bd cc e8 81 bd f1 0d 19 be
       -0.13291068 -0.064418174 -0.063432306 -0.14946724
000020 cf 5d 3e be 95 b5 f3 3b 43 58 5a bb c5 43 bf 3a
       -0.18590473 0.0074374177 -0.0033316768 0.001459234
000030 80 48 c6 3c b9 b9 eb bb 9b da 07 3c 0b b2 b9 3d
       0.024204493 -0.0071937707 0.008291866 0.09067162
000040 d8 a7 38 3c fc df cb 3d cb a5 13 3d ca e2 99 b8
       0.011270486 0.09954831 0.036046784 -7.337851e-05
000050 ee f1 53 bd d2 61 09 3d 24 33 d0 3a 3e 0a b2 bc
       -0.051744394 0.033540554 0.0015884382 -0.0217334
000060 3a 67 26 3d c9 66 0b 3d 57 ff cd 3c e2 31 64 bd
       0.04062579 0.03403357 0.02514617 -0.055711634
000070 15 3b 36 3b fd 3d e2 3c 4b ac 36 3d db d4 31 bd
       0.0027806212 0.027617449 0.044597905 -0.043415885
000080 b3 6d 3c bd 05 ba 95 3c 2b 5c 48 3d 5e 56 85 bc
       -0.046003055 0.018277178 0.048916023 -0.016276535
000090 e7 e4 28 3d 89 bb 23 bc 88 55 3e 3c 03 b1 29 bd
       0.041233923 -0.009993442 0.011617072 -0.041428577
0000a0 a3 1d 1e bd 74 1d 35 3d 03 d2 96 3b 52 58 84 3d
       -0.038602483 0.04421754 0.004602672 0.06462158
0000b0 21 e4 90 3c 85 33 40 bc b5 ec ff bc 68 e1 d5 bc
       0.017686905 -0.011731033 -0.0312408 -0.026108459
0000c0 54 fa e8 bc 9a 86 70 3c 55 14 e2 bc 2d af 38 bd
       -0.028439678 0.014680529 -0.027597586 -0.045088936
0000d0 f6 2d 27 3b bf ea 50 3c da cf 66 3d 3f 57 b5 bc
       0.0025509573 0.01275128 0.056350566 -0.022136329
0000e0 22 e7 70 bd 21 e9 df 3c 66 bc f5 3c be 26 d1 3b
       -0.058814175 0.027332844 0.029997062 0.0063827923
0000f0 db 5f 79 3c 4b 89 90 3d f0 68 ae bc 74 c1 4f b9
       0.015220608 0.070574366 -0.021290272 -0.00019813125
000100 cc c6 bd bb 44 a3 27 bd d9 22 b5 bd cb 50 17 bc
       -0.0057915207 -0.040927187 -0.08844537 -0.009235571
000110 50 59 99 bd 92 8a 71 bd b9 4e 9d bd df 79 84 ba
       -0.07487738 -0.05897004 -0.07681031 -0.0010107121
000120 58 bb 3d bd 58 3a 28 bd 83 aa d8 bc 30 0d 7a 3d
       -0.046321243 -0.041071266 -0.026448494 0.061047733
000130 a4 17 f9 3b 13 f4 61 3d f2 94 d8 3c de 80 40 3d
       0.007601695 0.055164408 0.02643821 0.046997897
000140 dc 04 0e 3d b2 7b 2e bd 61 0c 03 be 94 75 ef bd
       0.034672603 -0.042598434 -0.12797691 -0.11692348
000150 ab 31 ef bd f5 15 aa bd 19 8b 70 bd f8 b2 9c bd
       -0.11679395 -0.08304969 -0.058726404 -0.07651323
000160 d3 a5 4d be dd 09 ec bd e9 bc 40 3d 32 ce ea 3c
       -0.20082788 -0.11525319 0.04705516 0.028662775
000170 d8 a9 2f 3d 18 1e ef 3c 9a 15 9f 3d 99 bb e5 3c
       0.042886585 0.029189155 0.07767792 0.028043555
000180 ed 2c 8b 3c 5f a7 bf 3d fd ea a9 3d db 05 90 3c
       0.016989196 0.093580954 0.082967736 0.017580917
000190 bf 01 a5 bb 95 e2 00 bd ab 7e 01 bd fc a0 5d bd
       -0.0050356085 -0.031466085 -0.03161494 -0.054108605
0001a0 4b 9a be bd 35 d9 20 bd dc 64 82 bd 3c 0e 2f 3d
       -0.09306773 -0.039269645 -0.06366894 0.042738184
0001b0 af e7 42 bd 25 b9 aa 3c b1 df 67 bd f2 ca 41 bc
       -0.047584232 0.020840237 -0.056609813 -0.011828171
0001c0 d9 1d a8 3b f2 75 86 3d b2 96 64 bd 6f db 81 3d
       0.0051305112 0.06565465 -0.055807777 0.06340682
0001d0 11 8a 2c 3d 8d fc 8f 3d 98 c7 b3 3c 55 11 53 bd
       0.042123858 0.07030592 0.02194576 -0.0515302
0001e0 05 3c 01 bd c4 56 fa bc 4e cf de 3c ed da b4 bd
       -0.03155138 -0.030558951 0.02719846 -0.08830819
0001f0 90 bd 94 3c de 6d 64 bc 44 a4 12 bd 73 18 44 bd
       0.018156797 -0.01394221 -0.035801187 -0.04787488
000200 01 b6 95 3c 00 4d 9b bd 3e 0a 06 bd 2a c0 f8 bc
       0.018275263 -0.07583046 -0.03272461 -0.030365068
000210 31 1f 1e 3d a2 7b 91 bd 2e b8 6a 3d eb 1e 4c bd
       0.038603965 -0.07103659 0.057304554 -0.049834173
000220 45 4e 4f bd 85 5d 9b bc 35 49 06 bd e1 24 a5 bd
       -0.050611753 -0.018965492 -0.03278466 -0.08063675
000230 85 33 07 3d 16 82 0b be 90 d5 01 bd 42 05 4c 3d
       0.033008117 -0.13623843 -0.03169781 0.0498097
000240 49 13 e8 3c d5 65 e3 bc c9 54 30 bd fd a8 b9 bc
       0.028329508 -0.027758518 -0.043049607 -0.022663588
000250 5a 2d 4c 3c 7d 92 f1 3c e6 0d 22 3d 04 23 79 3d
       0.0124619845 0.029488796 0.039564036 0.06082441
000260 79 4b 99 3d 27 a1 70 bd ce 27 84 bd d3 8c df bc
       0.074850984 -0.058747437 -0.06452905 -0.02728883
000270 fb 2f 85 bb 5a 43 0a bc a2 1e 84 bd 02 28 dc 3a
       -0.0040645576 -0.008438909 -0.06451155 0.0016796591
000280 9c e1 8a bd cc 23 56 bb 1f f1 3b 3d 4f fe e8 bc
       -0.06781313 -0.0032675145 0.045884248 -0.028441576
000290 fc 56 46 bd c0 35 c1 3c cd 7b 53 bc 74 5d 47 bd
       -0.0484228 0.0235852 -0.012907934 -0.04867311
0002a0 a5 ef 47 bd 54 41 54 bc 42 cf 07 bd 50 dc 9f bd
       -0.048812527 -0.012955029 -0.03315664 -0.07805693
0002b0 64 d1 e2 bd 6a d3 98 bd 08 08 76 bd 70 aa 9d bd
       -0.11075094 -0.07462199 -0.060066253 -0.07698524
0002c0 42 7f 23 be 34 13 d4 bc 41 7c d8 bb f8 f2 4e bd
       -0.15966514 -0.025888063 -0.006606609 -0.05052468
0002d0 4b 34 82 bd 67 95 86 bb 49 e0 8d bd ee 1a 31 3c
       -0.0635763 -0.0041071656 -0.069275446 0.010809643
0002e0 dd b3 a6 bd a2 19 2e be 63 a2 21 bd 92 0f 68 bd
       -0.08139775 -0.17001966 -0.039461505 -0.056655474
0002f0 36 b7 b3 bd 99 c5 97 bd ec 23 41 3d a4 08 c3 bc
       -0.08775179 -0.07410736 0.0471534 -0.023807831
000300 c7 22 14 3d db b2 26 bd 0c a6 c9 3c 36 52 93 3c
       0.03616598 -0.040697914 0.02461531 0.017983537
000310 ff e6 31 bc cc 2a b0 3d c2 8d 5a bd 9a ae 87 bd
       -0.010858296 0.08601913 -0.053357847 -0.066250995
000320 3d 4d 40 bd cc 80 94 bd a7 ce d5 bd 2a 6f f3 bd
       -0.04694866 -0.072511286 -0.104398064 -0.11886437
000330 8d 03 db bd 7c 7c 8e bd 29 b9 ba bb 07 4c 8e 3d
       -0.10694037 -0.06957337 -0.0056983423 0.06948095
000340 5c fe f3 bc c7 93 ab bc 9e 2b a7 bd 5b 68 d1 bd
       -0.029784374 -0.02094449 -0.08162616 -0.10224982
000350 1e ac 12 3d 8d 84 41 bd 01 4a bc bc 80 06 93 3d
       0.035808675 -0.04724555 -0.022984507 0.07178974
000360 01 f0 d6 3c c7 18 94 bd 48 1b c5 bd f3 58 9d bc
       0.02623749 -0.072312884 -0.09624344 -0.019207453
000370 62 f1 da bd 44 f4 b2 bd 45 cf 30 bd 9a 76 52 bd
       -0.10690571 -0.08737996 -0.043166418 -0.05138264
000380 b0 b2 25 bc 59 f9 39 3d a1 27 9a 3b b0 c3 2d 3d
       -0.010113403 0.045403812 0.004704431 0.04242295
000390 70 97 22 3d d8 51 50 3d 9b af 7a bc f7 c9 7a bd
       0.039695203 0.050859302 -0.015300657 -0.061227765
0003a0 9b dd a1 3d b9 ed 25 bc 98 c4 37 bc 5f 13 48 3d
       0.07903596 -0.010127478 -0.011216305 0.0488466
0003b0 82 80 76 3d e3 1a 45 3d 8c ac 34 bd c8 37 21 bd
       0.06018115 0.048121344 -0.044109866 -0.039359838
0003c0 00 ea 8a bc 50 f9 84 3d 34 f5 00 3d c9 16 0a be
       -0.016957283 0.06492865 0.031483844 -0.13485254
0003d0 73 5b fd bd 89 6f ce bd 12 29 ef bd c6 67 d1 bd
       -0.12370958 -0.100798674 -0.116777554 -0.10224871
0003e0 2b a9 f1 bd 87 1b a8 bd e5 c1 02 be ac db 36 be
       -0.11799844 -0.082083754 -0.12769277 -0.17857236
0003f0 9a 60 69 bd 99 f1 f9 bc 49 f2 85 bd 6e 55 96 bc
       -0.056976892 -0.03051071 -0.06540353 -0.018351283

conv2.bias f4 [64]
000000 f7 b9 cc bd 04 b9 19 3d 94 3f 43 bd 50 71 4a 3c
       -0.099964075 0.03752996 -0.047668055 0.012356117
000010 5c 48 8d bd de a8 b1 bb a9 21 7c bd ff 31 2d ba
       -0.06898567 -0.005421742 -0.06155554 -0.0006606876
000020 35 d1 ab 3d 52 96 20 bd 31 dc f6 3c 7f 95 08 3d
       0.083895124 -0.039205857 0.030134292 0.033345696
000030 38 ee 3b bd ca be 50 3c 24 56 54 3b fd eb 8e 3c
       -0.04588148 0.0127408 0.0032399977 0.017446512
000040 82 f3 38 3a cf 90 9e bd ca 92 44 bd 98 ac 54 3d
       0.00070553285 -0.07742464 -0.04799155 0.05192241
000050 ca ef 59 bd ed 3a 93 3c 1c ec 77 bc ee 03 5a bd
       -0.053207196 0.017972434 -0.015131976 -0.053226404
000060 4e 01 c4 3c fc 9a d2 bd 35 12 55 bd 05 92 09 3c
       0.023926403 -0.10283467 -0.052019317 0.00839663
000070 40 26 6d bd 3f 53 25 bc ac a4 14 3d 78 18 1b bd
       -0.057897806 -0.010090648 0.036289856 -0.037865132
000080 d6 ca dd bb 5a 92 2e bc 52 ff 43 bd 28 e9 3d bd
       -0.0067685647 -0.01065501 -0.047850914 -0.046364933
000090 39 51 a2 3c 11 48 e3 3c e4 fb c3 ba 49 ab 23 bc
       0.01981412 0.027744325 -0.0014952389 -0.009989568
0000a0 08 da 97 3b 42 9e d6 bb 41 7d 20 bd ab a3 46 3d
       0.0046341456 -0.0065496275 -0.03918195 0.04849593
0000b0 b4 1c 2f 3d 92 b0 93 bc 3a 00 0c 3d c8 a2 5f 3c
       0.042751983 -0.018028531 0.034179904 0.01364965
0000c0 cf 1f 49 bc bf a0 04 bc 64 33 0a 38 23 bb 0a 3d
       -0.01227565 -0.0080949655 3.2949625e-05 0.033869874
0000d0 98 1a bb bc 97 02 ce bc bb 4c 96 bd 31 c0 2e bd
       -0.02283983 -0.02514772 -0.07338854 -0.042663757
0000e0 ad 55 10 3d f9 4b 93 bd 21 b0 24 ba 98 cb 78 bd
       0.035237957 -0.07192225 -0.0006282349 -0.060741037
0000f0 05 c9 8b 3c f6 b3 2b bd 25 eb 71 3c 09 86 7e 3b
       0.017063627 -0.04191967 0.0147655355 0.0038837215

conv3.weight f4 [128, 64, 3, 3]
000000 ea 37 d2 bc 77 28 e6 3c b4 28 2d bd 94 e7 4a 3d
       -0.025661428 0.028095467 -0.042275146 0.049537256
000010 1c 9f 1c bd 5f 9a 1e bd be b8 92 3d ab 7a 23 bd
       -0.038237676 -0.03872144 0.07164143 -0.039911907
000020 fd c5 64 bd 7c 35 fc 3b 26 d8 f6 bc 49 e3 1c bd
       -0.05585288 0.0076968055 -0.030132364 -0.038302694
000030 46 fa a5 3d 73 b7 e4 bc 2d 80 ee 3a 26 ea 89 3c
       0.081043765 -0.027919507 0.0018196158 0.016835283
000040 20 32 9d 3c f5 65 54 bc 0c 59 f2 3c 9e b8 6b 3d
       0.01918894 -0.012963762 0.029583476 0.05754911
000050 ec ec 99 bb 9d a3 6e 3d 09 0e 61 3c 9d 45 dd bc
       -0.0046974327 0.058261503 0.013736256 -0.027010733
000060 d8 71 fa ba 37 23 1f bd 6a 28 c9 bc cf 45 d3 3b
       -0.0019107414 -0.038851943 -0.024555404 0.006447531
000070 fa d5 36 bd 24 0c b8 bc bb 10 3d bb e2 e0 8f bb
       -0.044637658 -0.022466727 -0.0028849083 -0.004390822
000080 50 0d 88 bc 96 b3 9f ba 8f 1c 3e bd 34 6b e2 bc
       -0.01660791 -0.0012184258 -0.046413954 -0.027639009
000090 e0 56 21 3d f8 0e 4f bc f0 99 1e bd 9d 8a cf 3c
       0.03938949 -0.012637846 -0.038721025 0.02533465
0000a0 a3 67 16 3d dc c1 08 3c 7f 5d 3d 3d e9 75 f6 3c
       0.03671993 0.008347001 0.046231743 0.03008552
0000b0 dd 4a 70 bd 0a 1d ea bd c8 1d ef bc d2 d4 6f bc
       -0.058665145 -0.1143132 -0.029189005 -0.014638143
0000c0 9c 5a 73 3c f6 43 72 3d eb b3 52 bd 9e d6 3c 3d
       0.014853146 0.059146844 -0.051441114 0.046103112
0000d0 95 57 be 3b 49 a9 bc bd 1e e7 92 3d 92 25 e2 3b
       0.0058087804 -0.09211976 0.07172988 0.0069014514
0000e0 09 c3 14 bb 97 7d 3f 3b e0 82 8e bc c5 42 18 3c
       -0.0022699258 0.0029219144 -0.01739639 0.009293263
0000f0 85 86 55 bc de 0c 69 3c dd a8 89 bd 84 f2 f7 3c
       -0.01303256 0.014224259 -0.06721661 0.030267008
000100 f0 e9 19 3d ff 70 62 3c 94 51 78 bb 8e c9 08 bd
       0.037576616 0.013820886 -0.0037890421 -0.033395343
000110 4c d9 04 3d 49 dd 41 3c ec 60 3c bd 56 4e 70 3d
       0.032433793 0.011832544 -0.04599087 0.058668457
000120 63 3c 83 bd c3 14 3f bd 71 14 b1 bc 78 8e ef bd
       -0.06408002 -0.04665066 -0.021616193 -0.11697096
000130 9e d4 a2 bd d9 a0 0c bc 3d d6 c9 bd ef b9 a8 bc
       -0.0795071 -0.008583271 -0.09855316 -0.020596473
000140 ff 11 19 bd 39 97 25 bd 2d 26 b5 bc 4a 68 4c 3d
       -0.037370678 -0.04042742 -0.02211293 0.049904145
000150 40 92 79 bc 77 ea e9 3c db 9e 15 3d 41 ae 42 bc
       -0.015232623 0.028554184 0.03652845 -0.011882366
000160 c5 3a 96 bc 99 b3 83 3c d8 1a 10 3d f2 4e 3d bb
       -0.01833857 0.01607685 0.03518185 -0.0028886166
000170 ea b0 09 3d ac d8 99 3d fb 66 03 bc 52 70 29 3d
       0.033615984 0.0751203 -0.008020158 0.041366883
000180 02 d6 b0 3c 0d b5 a7 bd 28 15 77 3d 2b 18 8d bd
       0.021586422 -0.081888296 0.06032291 -0.06889375
000190 ac 1a 03 bd 78 76 d6 bc ae 86 ac 3d 9e 40 59 3d
       -0.03200786 -0.026179537 0.084241256 0.05304014
0001a0 fc b0 46 bb 8f 81 68 3d 7e 93 94 3c 65 ad ce bc
       -0.0030317893 0.05676418 0.018136736 -0.025229165
0001b0 51 8c b2 bc ba b2 47 3c c0 f0 13 3c fb a9 22 bc
       -0.021795424 0.012188608 0.009029567 -0.009928222
0001c0 89 2a 69 bd 3c 63 7f bd 52 77 4f 3d 31 76 41 ba
       -0.05692533 -0.062350497 0.050650902 -0.00073799776
0001d0 28 fc c4 3b 43 ab b5 3b 59 7a 5d bc 50 41 e5 3c
       0.0060115047 0.0055440976 -0.0135179395 0.027985245
0001e0 d2 7f ab bc c2 9d 61 3c 72 f0 66 bb 0c 4c 97 3d
       -0.020934973 0.013770523 -0.0035238531 0.07387552
0001f0 46 69 45 3c 69 6d b3 bc a4 3b 83 bb d3 05 fb bc
       0.012049025 -0.021902757 -0.0040049125 -0.030642426
000200 aa b6 89 bd fd e1 e2 3c 27 bc fe bb 5b 7b 8e bd
       -0.067242935 0.02769565 -0.0077738944 -0.06957122
000210 aa 96 9d 3c 7b 6d 53 3c ab eb 1d bd 5e 8c 09 3d
       0.019236881 0.01290452 -0.03855483 0.03358113
000220 28 0e c1 3a 07 d2 05 bd 16 ac 65 3c b8 39 bf bc
       0.001472895 -0.032671 0.014018079 -0.023342952
000230 97 06 12 3d bd c9 69 3c ad 41 97 bc 8f b6 9d 3c
       0.035650816 0.01426929 -0.018463934 0.01925209
000240 6a b1 e0 3c 30 b2 e3 bc 85 a2 b2 bc a9 5b 9f 3d
       0.027428348 -0.027794927 -0.021806011 0.07781155
000250 74 7d 82 3d 26 12 91 3c 24 f6 8c 3c aa 0e 17 3d
       0.063715845 0.01770885 0.017207213 0.03687922
000260 f9 53 33 bd 97 1c e0 bb 83 17 07 bd a8 2f 04 bb
       -0.043781254 -0.0068393457 -0.032981407 -0.0020170007
000270 e8 a0 3b 3d cd 7a 77 3d 3c a3 30 b9 29 bb 75 3d
       0.04580775 0.060419846 -0.00016845478 0.059992943
000280 b9 91 24 3d 99 d0 87 bd 7d 37 82 3c c6 87 1b 3d
       0.040178034 -0.06631584 0.0158956 0.03797128
000290 f9 ec 82 bd 0f d1 6b 3d a9 cd 3d 3c ac ad 84 3c
       -0.06392855 0.05757242 0.011584678 0.016196094
0002a0 fc 54 93 bc d6 80 5b bd 0f d8 e6 bb a0 b9 9e bc
       -0.01798486 -0.053589664 -0.007044799 -0.019375622
0002b0 e5 6b d0 3c 29 2e 36 3b d8 bc 32 3c 80 6c 01 3d
       0.025442073 0.002779851 0.010909282 0.031597614
0002c0 9c bc 16 3c b8 42 88 3d 46 0b cb 3d 33 d8 d0 bc
       0.009200241 0.066533506 0.099142596 -0.025493717
0002d0 c0 cb 8b bc 63 14 fe bc 8a 19 b7 bd 95 de 93 3c
       -0.017064929 -0.03101558 -0.08940418 0.018050471
0002e0 be c5 04 bd fb 56 67 bd 60 5f 65 3d 02 85 d9 3c
       -0.032415144 -0.056479435 0.05599916 0.02655268
0002f0 6b 02 1b bd 35 3c 45 3c da c2 3f 3d a4 a0 15 bd
       -0.037844103 0.01203828 0.046816684 -0.036530152
000300 9f ea 33 3d ed bd c1 3b 25 4a 01 bd 98 93 11 bd
       0.043924924 0.0059125335 -0.03156485 -0.035541147
000310 03 1b 5c bd 61 7c 8d bb 32 2f 26 3d 68 f1 d1 bc
       -0.053736698 -0.0043178056 0.040572353 -0.025627807
000320 4e 5c 05 bc 45 01 04 3d 34 9f 9b b8 9a c6 f7 bc
       -0.008139683 0.032227773 -7.42063e-05 -0.030246068
000330 63 fc 0e 3d c0 76 5b 3c a8 68 31 bd f5 d3 0b 3d
       0.034908663 0.013395011 -0.0433127 0.034137685
000340 b0 a1 52 bb 69 34 33 bd 3b b8 b0 3c 36 91 3b 3d
       -0.003213983 -0.043751154 0.021572223 0.04579278
000350 36 36 5e bd 6a 10 24 3d f8 5d 3f 3c f5 22 87 bd
       -0.05425092 0.040054716 0.011680119 -0.065984644
000360 2d 02 ae bd d0 59 2e bd 1f c5 6d 3b ef 8b da 3d
       -0.08496509 -0.04256612 0.0036280823 0.106712215
000370 95 a1 f3 3c d8 3a 02 3d e6 d7 b8 3d d2 46 20 3d
       0.029740134 0.0317944 0.09025554 0.03913004
000380 1f a5 5f 3c 3c 8e 66 3c 6b 13 98 3c b6 86 b3 bd
       0.013650208 0.014071997 0.018563947 -0.087659284
000390 56 3e 4e 3d 64 61 7e bc c4 2b 36 bd 7f e8 e6 bc
       0.050352417 -0.015526149 -0.044475332 -0.028187035
0003a0 64 e9 55 bc 2d f0 48 bd d2 a4 2c bd 0c 64 f1 bc
       -0.013056133 -0.049057174 -0.042149372 -0.029466651
0003b0 1d e6 03 3c 72 60 0c 3c dd 82 0c bc b8 62 bc bc
       0.008050469 0.008567916 -0.008576122 -0.022996292
0003c0 72 79 8d 3b 09 ff b8 3b 73 c7 2a bd 3e d4 40 bc
       0.004317456 0.005645637 -0.041694116 -0.0117693525
0003d0 57 37 94 bd 67 82 47 bd f1 01 96 bc b9 6c 8d bc
       -0.07237118 -0.048708346 -0.018311473 -0.017263757
0003e0 07 fd 90 3c 24 5d 6e bc f9 3f a4 bd e2 aa b6 ba
       0.017698778 -0.014548574 -0.08020014 -0.0013936425
0003f0 6e ff 8f bd 5e aa c4 3c 54 55 0b bd 97 37 56 bd
       -0.07031141 0.024007019 -0.034016922 -0.05229911

conv3.bias f4 [128]
000000 4e 12 c6 3c 62 79 39 3b ec 1c 12 3d 12 8a 6b 3b
       0.02417865 0.002830111 0.035672113 0.003594045
000010 d0 ed 13 bd 38 62 0d bc 9e a5 23 bd ac 5a 04 bd
       -0.036115468 -0.008629374 -0.039952867 -0.032313034
000020 ff 5b f4 3c 7a fa 2e 3c 9e 42 b5 bc e5 87 0d bd
       0.029829023 0.010679835 -0.022126492 -0.034553427
000030 9d 08 2e bd 74 37 7e bc 92 bc 38 3c 88 6d 35 bd
       -0.042488683 -0.015516151 0.011275427 -0.04429391
000040 f5 8e 68 3c c1 1d 54 ba 87 bd d2 b8 86 96 59 3c
       0.01419424 -0.0008091592 -0.000100488825 0.0132805165
000050 f6 b9 57 bd a6 7f 1d bd e3 47 bd 3b ca b9 91 bc
       -0.05266758 -0.038451813 0.005776392 -0.017788786
000060 07 a5 cf 3b 33 34 b7 bc 30 ed c2 3b ba d0 13 bc
       0.0063368115 -0.022363758 0.005948685 -0.009021932
000070 fe 5b 21 bd 2e 3a 5a bd 8a af cb 3c f7 9e 56 bd
       -0.03939437 -0.05327814 0.024863977 -0.052397694
000080 47 eb 60 bd d6 7d 0d 3d bb 19 bb ba 1a 2e 12 bc
       -0.054911878 0.034543835 -0.0014274636 -0.008922124
000090 0d b7 d6 bc 73 98 19 3c 2b 9b 9e bc c4 b7 08 bd
       -0.026210332 0.009374726 -0.0193611 -0.033378378
0000a0 50 cc 64 bc 69 24 88 bc 41 5b c7 bc c5 eb 89 3c
       -0.0139647275 -0.016618924 -0.024335505 0.016836056
0000b0 f8 ee 92 bc 25 f1 a7 3c cc e3 78 3c 8a 70 0f 3d
       -0.017936215 0.020500729 0.01519103 0.035019435
0000c0 c5 03 89 3c fb 69 9d 3c 06 2e 2c bd 4f ef 0e bd
       0.01672543 0.019215574 -0.04203608 -0.03489619
0000d0 ab 92 e6 3b 3b a3 23 3c 70 7c be bc 62 6a 12 3d
       0.007036527 0.009987648 -0.023252696 0.035745986
0000e0 c1 2f 12 bd 92 39 6e 3c fd 04 4f bb 1f 9a 38 3d
       -0.035690073 0.014540093 -0.0031588667 0.045068856
0000f0 ba da 18 bc 01 05 28 bd 5c 20 9f bc 4c ee f5 bc
       -0.009329492 -0.041020397 -0.01942461 -0.030020855
000100 c3 b3 19 3d 84 29 e7 bc 38 27 fe bc ed 92 31 bd
       0.03752495 -0.028218038 -0.03102456 -0.04335301
000110 a7 46 6f 3c 03 9c b0 3c 88 88 b1 bc 98 9f 6c bd
       0.014604247 0.021558767 -0.021671548 -0.057769388
000120 3c 2b cc bc 1b 10 43 3b b0 a5 42 bd 8a c4 00 3d
       -0.02492296 0.0029764238 -0.047521293 0.031437434
000130 60 12 2d bd a6 52 bb bb 4e ed f2 3c 01 96 38 bd
       -0.042253852 -0.0057166396 0.029654171 -0.04506493
000140 23 9a 5b bd 11 fb 00 bd cc 27 d8 bc bf 77 26 bc
       -0.053613793 -0.031489436 -0.026386164 -0.010160386
000150 b8 45 73 3b 63 08 d4 bb a4 6f 31 bd 75 24 a7 bc
       0.0037120413 -0.0064707263 -0.04331936 -0.020403126
000160 62 32 a6 3c f7 4c 42 bc b3 60 9e bb 3c 51 08 3d
       0.020287696 -0.01185917 -0.004833305 0.033280596
000170 e8 4d 54 bc 51 7f a6 3c f2 21 83 3c db 64 2f bc
       -0.012958027 0.020324381 0.016007397 -0.010705198
000180 d5 d6 9b bd 2f 3b 09 3d cb dc 2e bc d7 bc c6 b8
       -0.07609335 0.033503707 -0.010672758 -9.47655e-05
000190 5d 9e 69 bc fe de a9 3c 54 af 0a bd db dd db 3b
       -0.014258948 0.020736214 -0.033858612 0.006709797
0001a0 de 37 17 bd fd 85 dd 3c bd bf 1c bd 6e d0 56 bc
       -0.036918513 0.02704143 -0.038268793 -0.013111217
0001b0 08 61 19 bd 4d 22 e1 3b e2 eb 2d bd c7 27 28 bd
       -0.03744605 0.006870544 -0.042461284 -0.04105356
0001c0 39 18 03 bd d3 74 0a bd b1 cf cb 3c a8 2f b6 3c
       -0.032005522 -0.03380282 0.024879308 0.022239521
0001d0 e9 cb 61 bd f3 83 ef b8 d0 6f 29 bd b3 7f 02 3d
       -0.055126105 -0.000114209855 -0.0413664 0.031860065
0001e0 82 3b 5b bc 1e f3 21 bd 49 99 ee bc 53 67 14 bb
       -0.013380887 -0.039538495 -0.029125826 -0.0022644594
0001f0 a2 62 35 bc 64 6f 8f 3a 00 ab 03 bd 5a 4f 1a bb
       -0.011070879 0.0010943231 -0.0321455 -0.0023545832

fc1.weight f4 [10, 128]
000000 e6 74 ab 3d 25 2f 2d 3d 68 89 0f bd 3d 97 1c bb
       0.08371906 0.04228129 -0.03504315 -0.0023893856
000010 b8 8a 8b 3d e1 e5 81 bd eb f4 18 be 90 cf 81 bc
       0.06813568 -0.06342674 -0.14937179 -0.015846044
000020 20 23 7f bd d9 ce a3 3d 48 e7 2e bd 84 cf 20 3b
       -0.062289357 0.079984374 -0.042701036 0.0024537751
000030 3e d5 f4 bc d1 9d dd bd 84 00 5d 3b 19 46 ae bd
       -0.029886838 -0.10821117 0.0033722231 -0.08509464
000040 a2 ac 0c bd 2e 9c 06 be 1b 80 e6 bc f1 39 28 3d
       -0.034344323 -0.13145515 -0.028137257 0.041070882
000050 1c 7b d6 3c 70 ae 9b 3c ca f0 b5 3d 73 24 87 bd
       0.02618175 0.019004077 0.088838175 -0.06598749
000060 f5 a3 55 bd 3c da ad bd eb 7b b0 3d 96 9e f4 3c
       -0.052158315 -0.084888905 0.086173855 0.029860776
000070 14 22 f3 3c 5f 45 9b 3d c5 56 65 3d d2 0f a2 3d
       0.029679336 0.07581591 0.055990953 0.07913174
000080 57 86 f2 3d a5 a0 82 3c 23 a2 8a 3c 02 65 17 bd
       0.118420295 0.015945742 0.016923016 -0.036961563
000090 29 21 70 3d 54 90 ac 3c 09 8e 87 bd 9e 78 8e 3d
       0.058625374 0.021064915 -0.06618888 0.069566
0000a0 d9 55 ad 3c 10 36 f1 3c 66 9e 20 bd 3c 88 36 be
       0.0211591 0.029444724 -0.03921356 -0.17825407
0000b0 82 06 b7 bd b8 9a a2 bd 57 9a 7d 3d 80 68 f1 bb
       -0.08936788 -0.079396665 0.061914768 -0.0073671937
0000c0 02 47 e9 3d a3 f1 0d be 16 c7 e8 3c a5 ef 23 3d
       0.11390497 -0.13861708 0.028415244 0.040023465
0000d0 5d aa ba bd 83 99 8f 3d 79 81 b4 3d 0e 8f db bd
       -0.091145255 0.07011702 0.088137574 -0.10720645
0000e0 d2 9a 0e be 67 28 ae bc 13 39 24 be a1 6a f7 bd
       -0.13926247 -0.0212595 -0.16037397 -0.12080885
0000f0 78 61 ea 3b 8b 0c e7 bd ab 6d 10 3d 27 e1 e6 bd
       0.0071527325 -0.11281689 0.035260838 -0.11273413
000100 d3 92 12 3c 3c 57 cc 3d 13 42 29 3d 95 1f fc 3a
       0.008946138 0.09977576 0.04132278 0.0019235486
000110 04 33 7f 3d 30 ae 78 3d 03 1b cc bc 01 06 21 be
       0.06230451 0.060712993 -0.024915224 -0.15724947
000120 c5 dd e9 3d 59 dc 35 bc 35 1c 12 bd 2a 37 5e bd
       0.11419252 -0.011099898 -0.03567143 -0.054251827
000130 88 b9 56 3d 83 d7 97 3c dd 93 15 bd fb 89 91 bd
       0.05242303 0.018535381 -0.036517967 -0.07106396
000140 28 f4 cf bd 7c a8 b5 bd 01 51 b3 bc a5 6b 8a 3d
       -0.10153991 -0.088700265 -0.021889212 0.06758813
000150 c9 5a 1b be db 69 03 be ed 5b 8a 3d b4 db f8 bd
       -0.1517135 -0.1283335 0.06755815 -0.1215128
000160 95 c6 c2 3c 12 31 83 bd 27 a0 cf 3b 0b bb 15 bd
       0.023776332 -0.06405844 0.0063362303 -0.03655533
000170 01 fa 80 bd d3 22 6d bd 71 aa 1f 3d 28 a2 18 3b
       -0.062976845 -0.05789454 0.038980905 0.0023290012
000180 78 c7 b4 bc ba 35 b8 bd 25 55 af 3d b7 a2 9f bd
       -0.02206777 -0.089946225 0.08561162 -0.07794707
000190 8b 20 22 3d a7 a9 f5 3d dc 08 16 be f7 f5 2d 3c
       0.039581817 0.11995249 -0.14651817 0.010617725
0001a0 71 cc ec bd d0 17 21 be 2c 6c 4a 3d 44 b0 84 bd
       -0.115624316 -0.1573174 0.049419567 -0.064789325
0001b0 b4 4c ad bd a4 2d 1c bd f4 1d 8c ba 6e 1d 5e bb
       -0.084618956 -0.038129464 -0.0010690079 -0.0033892053
0001c0 9e eb 27 be 3b d4 3a 3c ee fc e0 3d b9 cc 0f be
       -0.16398475 0.011403139 0.109857425 -0.14042939
0001d0 22 dc 54 3c 8b 9a b3 bd 09 70 a5 3d d8 f0 b6 bd
       0.012991937 -0.08769711 0.0807801 -0.08932656
0001e0 c0 f4 24 3d 56 57 ab ba e2 79 d7 bc 79 4c 89 3d
       0.040272474 -0.0013072293 -0.026303235 0.06704039
0001f0 24 aa 90 3b b6 9d 50 3d 6b cd 36 3d 9d 66 92 3d
       0.0044148136 0.050931655 0.044629496 0.07148478
000200 6e 75 1a be 6f fc a4 3d 6d 4e ad bd d3 97 92 bc
       -0.15083858 0.080559604 -0.08462224 -0.017894661
000210 aa 4b 8b 3d 04 bb 02 3d 43 d3 03 be 31 8f 02 be
       0.06801541 0.031916633 -0.12873559 -0.12749936
000220 17 60 d0 3d 00 83 e3 bd 17 26 43 bd d0 b6 d8 3d
       0.10174578 -0.11108971 -0.047643747 0.10581744
000230 17 09 32 3d b9 fd 87 bd 77 42 c2 bd cc 9b d1 3d
       0.0434657 -0.06640191 -0.094853334 0.10234794
000240 0c ef 4a 3d 86 7a 96 bd 39 87 fc bc 64 77 d5 3b
       0.04954438 -0.07347588 -0.030826198 0.0065144766
000250 24 96 70 3d 8c 19 61 bd 28 55 32 3d 76 70 83 bc
       0.058736935 -0.054956004 0.043538243 -0.016044836
000260 77 66 8c 3b 4a 36 03 be 26 0a 1a be 06 57 19 be
       0.0042846757 -0.12813678 -0.15042934 -0.14974603
000270 93 7c bd bd a3 98 a9 bd 3e 93 27 be 23 48 b6 bd
       -0.09252276 -0.08281066 -0.16364762 -0.08900478
000280 d5 b6 12 be dc 77 16 3d 89 b9 f4 bd e1 52 65 bc
       -0.14327557 0.0367354 -0.119494505 -0.013996811
000290 d1 67 0f be ff ba 44 be 85 a0 0a be 51 d4 1a bc
       -0.14004447 -0.19211958 -0.13537796 -0.009450034
0002a0 26 6b 15 3e 5b ff 1e be 61 cb 0c bd c3 1d 96 3d
       0.14591655 -0.15527098 -0.034373645 0.07329895
0002b0 93 f5 73 3d fb 9a 46 3c fa a3 bc 3d 6e a7 3d bc
       0.05956037 0.012121911 0.092109635 -0.011575563
0002c0 3e 0a dd 3d d1 a0 b2 3d d0 65 c2 3c ef 01 91 3d
       0.10792969 0.087220795 0.023730189 0.07080447
0002d0 b0 a0 57 3c 4a 90 fb bd b8 76 1c be f8 f1 13 bd
       0.0131608695 -0.1228338 -0.15279663 -0.03611943
0002e0 7b d0 ab bd a1 77 8b 3d 0f da 67 bc a4 6e f3 3d
       -0.08389374 0.06809927 -0.01415111 0.118863374
0002f0 21 50 02 3c fe d6 93 3d 95 ea 8a bd 0d c2 5c bd
       0.0079536745 0.07218741 -0.06783024 -0.053896
000300 63 bf d1 3d 2e ec d7 3d df 1f 78 be 41 c4 55 3b
       0.10241582 0.105430946 -0.24230908 0.0032618197
000310 20 55 04 3e 4d df f5 bc e9 a4 03 bd 2f 3a 67 bd
       0.12923098 -0.030013705 -0.032139692 -0.056451973
000320 b7 bf 36 bd 06 75 ab bd fd a1 13 3c 5e 10 19 be
       -0.044616427 -0.0837193 0.009010789 -0.1494765
000330 9c 23 20 3c e1 fe b4 bd 84 51 97 bd 6e b9 5b 3c
       0.009774115 -0.08837677 -0.07388595 0.013410909
000340 6d 70 6f bd f2 9b c4 bd 0e 64 66 3c f0 da 53 bd
       -0.058456827 -0.09600057 0.014061941 -0.051722467
000350 2d 9e ee 3d d1 28 98 3d b3 81 e0 bd 5e dd 5a bd
       0.116512634 0.0742966 -0.10962238 -0.05343377
000360 e6 4d 21 be 54 d0 54 3d d8 93 1d be 3b f5 15 3e
       -0.15752372 0.05195649 -0.15388429 0.14644329
000370 26 20 8d 3d 8a d9 09 3e d6 58 0c 3b 44 f3 ff bb
       0.068908975 0.13461891 0.0021415255 -0.007810982
000380 03 4c 9e 3a f6 a5 71 3d d9 c5 85 bd be cc 50 3d
       0.0012077097 0.058996163 -0.06531877 0.050976507
000390 db 3b 9f bd 81 5f 05 be ec 4c 95 bd 7e a2 c5 bd
       -0.077750884 -0.13024713 -0.07290062 -0.096501336
0003a0 f1 86 db bd 22 c3 13 be 8d fb a9 3c aa f9 c7 3d
       -0.107190974 -0.14429906 0.020749832 0.097644165
0003b0 27 91 9d bd cd 8e bd bd e9 f0 d0 bb 74 74 e0 3d
       -0.07693701 -0.09255753 -0.006376375 0.10959712
0003c0 5b 81 55 bd 74 92 68 3d ed 41 1e be 7a ff b7 3d
       -0.052125316 0.056780294 -0.15454836 0.08984275
0003d0 43 aa 85 bd 65 f4 90 bb 59 ec 3e 3c 45 f5 3c 3d
       -0.065266155 -0.0044236653 0.011653029 0.046132345
0003e0 29 27 a2 ba 6b e4 12 be 9f de 26 bd a0 d9 db bd
       -0.001237129 -0.14344947 -0.04073965 -0.10734868
0003f0 df 0f 5e bb df 16 60 bc c9 d8 9b 3d aa 2b c2 3d
       -0.0033883972 -0.013677328 0.07609708 0.094809845

fc1.bias f4 [10]
000000 2d a2 01 bd 97 ff 85 3d d0 82 3e 3c 0c f6 9d 3d
       -0.031648804 0.065428905 0.011627868 0.07712945
000010 e9 28 de 3d 8b ac 32 bc 3b 5a ac 3d 27 cd d4 3c
       0.10847647 -0.010905395 0.084156476 0.02597673
000020 11 37 8c bb 8b 1f 02 be
       -0.0042790254 -0.12707345
